gesture_mlp.pt (torch, 103984 bytes, 6 tensors)

fc1.weight f4 [128, 63]
00000000: 3bdc 0bbd 5a67 b03d 7e0f d5be 4f6e 85bd
00000010: 5008 ea3c 5640 75be 3e0d b03d 4df6 fa3d
00000020: 7fef 09be 50c6 c7bd cdae 023e 7288 d1be
00000030: cc1d 8d3d 0b6a 6d3d 9ff8 c9be ae51 78bd
00000040: 0a3f ca3d 1d68 473e c1f3 ae3d 4160 663d
00000050: cefa 353d 9259 df3d 4038 013e 41e6 6c3e
00000060: 1e5d 173d 32a5 4b3e 6678 6d3d 951e c83b
00000070: 7781 05be 9227 863e b576 6b3d 5c96 a6bd
00000080: 8102 a53d 7b85 dc3d d1ad 51bd 7007 febd
00000090: cae1 bf3d 6d56 b53c 0cc1 81bb 05d5 e23d
000000a0: 1dec bcbd 3b64 f93d 56c1 dbbc a433 d23d
000000b0: 8bd5 f3bc 0b85 0e3d 8b7b a93d ec81 183e
000000c0: c021 87bd ae9f 803d 7985 a13e 876a ea3c
000000d0: 42fe 313d 5e21 95be 4217 9bba e027 91bd
000000e0: 6353 36be f063 4f3c fb0b 4dbd 4d83 8b3e
000000f0: 54d8 efbc 6bd2 20bd 9948 c43e 4e41 923d
00000100: 5594 fd3c 5f3a 3e3e 626b 9a3d 594e 313e
00000110: b93d 9e3c f8b3 223d f050 3abd a6a7 bcbb
00000120: bf14 943d 6284 eb3d d1d2 0bbe 5845 82bd
00000130: 356b cfbd 5928 93bd a4bf 743d f6b9 bcbd
00000140: 1ba7 a23d 4278 be3d 13a8 2b3e 789b f33d
00000150: cf2e 7b3d fda8 c53d c3f5 373e 10d5 afbd
00000160: a8b6 b6bd 17b2 253e fb53 1b3e 3c4c 923d
00000170: 8879 8fbd 125d a53d bba9 ca3d d29c cebd
00000180: 2024 213d 85d8 ab3d 584b 063d 18ef 923d
00000190: 80dd 00be a4a3 59be c8c4 c73d 911c aabd
000001a0: a3a9 31be 4579 37bd ad33 78bd e6dd ab3c
000001b0: 78b6 04bd dcba 7dbc a849 823e 1e3a bcbd
000001c0: 934c e93d b4a7 383e 2cf1 7d3d 4a36 81bd
000001d0: 6a24 a7be 22d2 e9bc 7065 f13d d50d 3fbd
000001e0: 8a33 adbb 793a 453d 21a2 e93e 6d06 0e3e
000001f0: 1d67 84bd 9da5 253f 875c 9abd f8b3 44be
00000200: 7265 323f 14c5 f7bd 0085 09be 95c6 273e
00000210: 901c 3a3d 4def 03be 46d2 923e 3927 eb3c
00000220: a4bc d0bd e4f3 763e dcc1 463d f046 fa3d
00000230: a430 933e 74e6 d5bd c7cd 2ebe 3d26 2ebe
00000240: cbf6 133d 035a d7bd 0d5a 29be 9b7c 423e
00000250: f7c1 2d3e 9d4f 51bd a0b7 433e 1e9b b03e
00000260: 09d8 6abe 3d56 9f3c f266 9dbe 3cc5 83bc
00000270: fad4 603d 8818 c4bd c4a0 ccbc f1e6 893d
00000280: 60a9 d8bc f8c9 203d 9ce0 ff3d 237f 063d
00000290: 60b8 00be 9ac7 a0bd 35ab 0cbe f20e 68bd
000002a0: 9c83 9abd 7295 05be 35dc ef3b 5e9e 093e
000002b0: b9d5 453d ea26 5bbe 7ae4 b73d 5b52 713e
000002c0: 62b9 a9be db86 d9bd deaf 02be 9cf3 f83d
000002d0: 6880 38bd 155d 883d 328e 043e fe0a d8bd
000002e0: 9612 443e c432 00be a1cd 52bd 0de9 2b3e
000002f0: b88a 13be f892 3abd b8db eabd d483 1ebe
00000300: 91f0 173e 5ee4 cc3d 71c0 af3b b38a 203e
00000310: 55b8 e2bc 5d36 2abe 565b feba c344 28be
00000320: b2d9 bfbe 2f3d 95bd 9521 abbc 8626 4dbe
00000330: 9866 5c3b 3f32 39bd b1e3 2b3e 2e38 2d3e
00000340: 4bfd 4dbd 87b0 5c3e 411f da3d 2c24 1d3e
00000350: 3469 503e 7467 0e3e 1a8d db3d c1e9 80bd
00000360: 7e64 59bd 559e 6dbe fa74 713e 4fd4 c8bc
00000370: 8b10 efbd 7f0c a93d 1ce9 f1bd e812 0a3e
00000380: 4d46 26bd feee a2bc ce24 5e3e 1ef6 05be
00000390: a08c e33d 4677 74be 42e2 ed3d 3cd7 d53c
000003a0: d8ad 673d 4e91 fb3d 8734 d93b 564e 0fbd
000003b0: ad62 2b3d 8e47 8c3d faa7 213e 3549 d13c
000003c0: 04a9 cdbd f145 0bbe 6dc0 13be 8747 0fbc
000003d0: 5d65 2bbd 9d61 6a3e fa50 6d3d d72e 0fbd
000003e0: 6027 b83e 3c33 94bc cdff aa3d 37b5 153f
000003f0: 258f 7cbd 2bb2 fb3d 8f1e 15bf d31a b23d
-0.034145575 0.08613463 -0.41613382 -0.0651518 0.028568417 -0.23950323 0.08596276 0.122540094
-0.13470267 -0.09754622 0.12761994 -0.40924412 0.06890449 0.05796246 -0.39447495 -0.06062477
0.09875305 0.1947331 0.08542586 0.05624414 0.04442864 0.10905756 0.12619114 0.2313471
0.036954038 0.19887236 0.05797615 0.0061071613 -0.13037668 0.26202065 0.057486255 -0.081341475
0.08057118 0.10767647 -0.051191155 -0.12403762 0.09369238 0.022135938 -0.0039597806 0.110757865
-0.092247225 0.121773206 -0.026825588 0.10263756 -0.029764911 0.03479485 0.08275517 0.14893311
-0.06598234 0.062804565 0.31547144 0.02861525 0.04345537 -0.2912702 -0.0011832493 -0.07087684
-0.17805247 0.012658104 -0.050060254 0.27248612 -0.029277958 -0.03926317 0.38336638 0.07141362
0.03095452 0.18576954 0.07540013 0.17315044 0.019316541 0.039722413 -0.045487344 -0.00575729
0.072305195 0.114998594 -0.13654639 -0.063608825 -0.1012787 -0.0718543 0.059753075 -0.09215157
0.07942029 0.09300281 0.16763334 0.11894888 0.061323937 0.096513726 0.17964844 -0.0858556
-0.08921558 0.16181217 0.15168755 0.07143447 -0.07005602 0.080743924 0.09895655 -0.10088505
0.039341092 0.08390907 0.032786697 0.0717451 -0.12584496 -0.2125383 0.0975433 -0.0830623
-0.17349868 -0.044793386 -0.060596157 0.020979833 -0.03240058 -0.015486445 0.2544682 -0.091907725
0.113915585 0.18032724 0.061997578 -0.06309183 -0.3264497 -0.028542582 0.11786926 -0.04664405
-0.005285685 0.048151467 0.45631507 0.13869639 -0.0646498 0.6470583 -0.075371794 -0.19209278
0.69686043 -0.120981365 -0.13429642 0.16384347 0.045437396 -0.12884255 0.2867605 0.028705226
-0.1019223 0.24116474 0.048524722 0.122205615 0.28748047 -0.10444346 -0.17070685 -0.17006774
0.036124032 -0.10515215 -0.16538258 0.18992846 0.16968523 -0.051101316 0.19113016 0.34493345
-0.22933973 0.019450301 -0.30742604 -0.01608526 0.05489061 -0.095749915 -0.024979003 0.06733502
-0.026447952 0.039255112 0.12494013 0.03283609 -0.12570333 -0.07850571 -0.13737185 -0.056654878
-0.07544634 -0.1304529 0.007319952 0.13439319 0.048299525 -0.21401563 0.08979125 0.23566572
-0.33149248 -0.10621425 -0.127624 0.1215584 -0.045044333 0.06658379 0.12944868 -0.105489716
0.19147715 -0.12519366 -0.051465634 0.1678812 -0.14408386 -0.045550317 -0.11467689 -0.15479976
0.14837863 0.10004495 0.005363517 0.1567791 -0.027675787 -0.166223 -0.0019405882 -0.1643248
-0.37470776 -0.072870605 -0.020890037 -0.20034227 0.0033630487 -0.045213934 0.16786076 0.16915962
-0.050290387 0.21551715 0.106504925 0.1534583 0.20352632 0.13906652 0.10720272 -0.06294585
-0.053074352 -0.2320493 0.2357978 -0.0245153 -0.11673077 0.082543366 -0.1181204 0.13483775
-0.040594388 -0.019889351 0.21693727 -0.13082168 0.111108065 -0.23873624 0.11615421 0.026103608
0.056562275 0.12283574 0.006628576 -0.034986816 0.04184215 0.068495855 0.15786734 0.025547603
-0.10042003 -0.136009 -0.14428873 -0.008745081 -0.041844714 0.22888799 0.057938553 -0.03495678
0.3596754 -0.018090837 0.083495714 0.58479637 -0.06165995 0.12289842 -0.58249754 0.086965226

fc1.bias f4 [128]
00000000: 5174 0d3c 25bd 053e c5d9 adbd 0e9e 113e
00000010: b9ae bfbc 4213 3abd 33d5 3cbe cece 76bd
00000020: 76ac 713d 37c0 2b3e 18bd a13c 1bb5 0abd
00000030: ab4f b83d 4820 803c b080 e43d ca6e 87bc
00000040: 8045 c83b 400a debd 2348 cebd 7e4e 083e
00000050: 5447 bbbd 5ece f43d 0b33 8f3d b70d 0a3e
00000060: 936f cdbd e6fc fdbd bda9 d23d 53e6 1f3e
00000070: 3798 9dbd e0bb 923d 06d7 05be 00da 813c
00000080: ac40 d53a c824 df3d 22af cd3d d0b1 b7bd
00000090: c5f7 21be 99d2 f9bd 0509 ff3c 1414 0abe
000000a0: db7c c9bd c5f8 ddbd 3936 fdbc 600a 593c
000000b0: 108b e73c db87 a6bd 0ebf 453d 6919 c5bd
000000c0: aadb 5fba aebf 53bd 9dbc c13b 8f7c 09be
000000d0: 75b0 4e3d c19c ee3d 532f 123e 7e1f 073e
000000e0: 14f0 423e 8a88 00be 49dd a4bd 3358 173c
000000f0: 67f3 63bd f872 06bd a42c 41bd 3726 4c3c
00000100: 4dd1 413d b81c b2bc ae29 16be c495 eebc
00000110: 3f56 1b3e fcdb e13d b428 99bd 2b52 65bb
00000120: 7fc1 113e 6eca a43d 0b87 603e c78e 81bc
00000130: 671b 94bd 90a9 4a3e 9773 463e da3e 1e3d
00000140: 17e5 f3bd adb6 69bd fc83 123d 953b fbbd
00000150: fb35 153d d459 0dbc 3a18 cbbd 631d 443c
00000160: 52f3 fcbd 1829 b93d b0df bfbd 3263 d3bd
00000170: 7e79 20bc c9fe 4dbd 5ed9 89bd 27c0 953d
00000180: ac66 a1bd 5092 c0bd a89c ab3d 2a9b 173d
00000190: 31bd 093e e069 a3bb 5831 dcbd 05da 0abe
000001a0: d25c 163e 7c2b b9bd ceac 4ebd 4a44 123e
000001b0: b918 83bd da8e 153e 6eaf 863b 01cc 873d
000001c0: 564f f63d d127 183d 2870 873b 7713 163d
000001d0: 56a2 84bd 419e 803d 5d5e 81bb 8b2c 933d
000001e0: 1030 4cbd 44ce 16bd 21df 30be 5000 ac3d
000001f0: 98f2 573d d95c e0bc afc6 713d f5b6 923c
0.008633689 0.13060434 -0.08488802 0.1422045 -0.023398744 -0.045428522 -0.18440704 -0.060255818
0.059002362 0.16772543 0.019743487 -0.033864122 0.089995705 0.015640393 0.11157358 -0.01653232
0.0061118007 -0.10841799 -0.10072353 0.13311192 -0.09144464 0.11953424 0.069921575 0.13481794
-0.10031047 -0.12401752 0.10286281 0.15615205 -0.07695048 0.071647406 -0.13070306 0.01585102
0.0016269884 0.10895687 0.100431696 -0.08969462 -0.15817173 -0.121983714 0.03113223 -0.13484222
-0.098382674 -0.10838465 -0.030909644 0.0132471025 0.028264552 -0.08131381 0.048277907 -0.09623987
-0.00085395074 -0.051696472 0.005912377 -0.13426422 0.05046125 0.11650992 0.14275865 0.13195607
0.19036895 -0.12552086 -0.08050019 0.009237337 -0.05565205 -0.032824486 -0.047161713 0.012460283
0.047318745 -0.02174221 -0.14664337 -0.029124148 0.15169619 0.11028287 -0.07478467 -0.0034991603
0.14233969 0.08046423 0.21926515 -0.015815152 -0.07231789 0.19791245 0.19380032 0.03863416
-0.1190893 -0.05705898 0.0357704 -0.12267224 0.036428433 -0.008627374 -0.0991673 0.011969897
-0.12351097 0.09041041 -0.09368837 -0.103216544 -0.009794591 -0.05029181 -0.067309126 0.07312041
-0.07880911 -0.09402907 0.08379489 0.03701321 0.13451077 -0.0049869865 -0.10751599 -0.1355973
0.14683846 -0.09041497 -0.05045777 0.14283863 -0.064012 0.14605275 0.0041102683 0.066307075
0.12026851 0.037147347 0.004133243 0.036639657 -0.064762756 0.062801845 -0.0039480166 0.0718623
-0.049850523 -0.036817804 -0.17272617 0.08398497 0.05272159 -0.027388023 0.05902737 0.017909506

fc2.weight f4 [128, 128]
00000000: fb84 1c3e 1749 af3d 5f91 92be 2928 8d3d
00000010: 0c99 d43d a210 103d 5e1b 543e d273 e83c
00000020: c092 bb3c bd3b 29bc e0d0 043d 10fc ef3d
00000030: 515d 333d 696b 9a3d bb2d 95be 6e94 4e3d
00000040: a867 0a3c ac29 f73a 6349 003e e6f2 cebc
00000050: 2ba5 19bd 22e7 383d c516 733d 71c0 053d
00000060: f201 093d 05fc 083e ab7d 3fbc 8a81 363e
00000070: 8381 91bd d186 a43d f836 453d 7a3d 97bd
00000080: f196 65bd a07d 73be 3fa7 a83d 0a39 fabb
00000090: a14c 043e 9b38 393d f826 7fbc c4b1 c6bd
000000a0: ce9a 7bbe 0489 1bbd 42ae 853d c3f7 b03d
000000b0: 7f08 a83d c597 933d cbab 9cbe a812 643c
000000c0: 9358 b2bd f623 493d 59e2 57bb 1280 ad3d
000000d0: 6897 7b3e 6aad 87be 2c7c 22bd 2038 d7bd
000000e0: c9c5 1cbd 40e7 b8bc 3321 a9bd 4e89 733d
000000f0: 745d f139 ac42 d5bc 4703 a13e 63f7 b0bc
00000100: 5048 8d3c 7577 48bd a4af b13e 4382 ff3d
00000110: 25d5 86bc 282a 55bd 721c 2d3d d796 32bf
00000120: 51fc febd 0c54 363d 2808 18be e710 a4bd
00000130: 1d0b a1be 7c8a 593d 07d7 c63d e46c acbd
00000140: 9db5 2cbd 1b6f 883d 70c0 dcbc 5597 8e3d
00000150: 4ca1 b9bd 0c64 673d 9c46 ae3c ba4c da3c
00000160: fd04 703d b64d ce3c 607a 86bc c079 b7bb
00000170: bb14 96bc cbed 693c 18c9 e83d c992 0bbe
00000180: a260 7ebd 9b5e 643e 241d b13c e284 ef3d
00000190: dbb7 93bd b618 2e3d f8bd 09bd 089f 983d
000001a0: 1380 27bd 2010 853e 00e0 b4be c8e6 41be
000001b0: f9d1 803d 123e 6cbd 4c70 87be 2791 9f3d
000001c0: 3202 63bd f729 f3bd d588 55be e1e5 e13d
000001d0: 7f87 343c df7d a9bd 066e 4d3e 5702 f93d
000001e0: b42e 5d3e 1fcb f93d f500 93bd 6cf2 d33b
000001f0: 6033 2fbe 0f75 eb3d daed c5bd d433 f13c
00000200: 2ede 2dbc ca8b aebd 1f06 743e 7cea 17be
00000210: 9940 3d3e 5cf9 c6bc 52ed d73c d060 0e3e
00000220: f581 383e d11d 5ebc eee3 7e3d 11a9 5bbc
00000230: fb68 993d cf13 c13d 9507 a9be abc1 543e
00000240: 7620 0b3d 0271 0e3e a906 e73e 38f2 97ba
00000250: eab5 8fbd c737 943d 16ae 7f3d 9ee4 2ebd
00000260: 59be 41bd 10c1 233e 061e 313d 79b1 b63d
00000270: 9a2b 4a3d 1d9f eb3d a6cd 183d 7a7c 2b3d
00000280: 2c4c 02bd c036 033f 6785 8cbd 65d1 e0bc
00000290: 8e72 e13d b203 503e 04aa 9a3d 6df1 c43d
000002a0: 4a25 eebe 5db5 6e3d e39b 0d3e 38c4 fdbc
000002b0: 5543 1cbd d0d4 b23c ebaf bc3e 4fc2 d93c
000002c0: 0fc9 18bc 606c bf3c 28b4 03be 819d a23d
000002d0: 59d9 503f 56e2 7fbe 20b8 11be 59e0 ebbd
000002e0: 8841 3f3d 49d5 49bd cfa1 983d 39dc 673d
000002f0: 152b 31bd 3281 73bd 4268 603f 8d18 743d
00000300: c6dc 803e 7384 8e3d 69bb a53e 9f4b 14bd
00000310: cff0 123d 4536 9e3c bc39 c33c 1453 1bbd
00000320: 0a7f 07bd 706d 2e3c c6fe c13c 5059 3bbd
00000330: 5cc4 b4be 28d4 e3bd 8dec 51bd cd1e 4fbc
00000340: 2b38 843d 26f6 b03b 389c 903c 60fb a4bb
00000350: d572 59bc 1514 d73d a2c4 303d 0c7c 8ebd
00000360: bdf7 68bd 84f0 203d 7e95 1a3d e7f6 96bd
00000370: d469 833c dcd9 043d 89d2 033e 1fb5 bf3e
00000380: 001c 143b c305 303e 907d b7bb dd2f 06be
00000390: 3278 21be a67d 36bd e0cf efbb 505e 28bd
000003a0: e483 78bd 6230 9c3e 84f3 89be 2c77 84bd
000003b0: fb7d 303d bc14 18bd 9efe 343e 20c1 dcbb
000003c0: 28c1 de3b 1143 843d 7d22 043f 159a b9bd
000003d0: 674a 9abd ea00 be3d 900e 28be 0307 1a3d
000003e0: bc1c b13e bc19 953e f04d 973c 5e80 03be
000003f0: 7991 e33d 8dcc a13d 0d6c cbbd a4d1 8fbd
0.15285103 0.08558863 -0.28626534 0.068924256 0.10380754 0.035172112 0.20713565 0.02837554
0.022897124 -0.010329184 0.03242576 0.11717999 0.043790165 0.07540018 -0.29136452 0.050434522
0.008447565 0.0018857024 0.12527995 -0.025262307 -0.037511032 0.0451423 0.059347887 0.03265423
0.03344912 0.13377388 -0.011687676 0.17822853 -0.071047805 0.08033527 0.048148125 -0.073847726
-0.056052152 -0.23778391 0.08235025 -0.007636194 0.12919857 0.04522 -0.015573256 -0.09701875
-0.24570772 -0.037972465 0.06527378 0.08641007 0.082047455 0.07206682 -0.30599818 0.013920464
-0.087083004 0.04910656 -0.003294131 0.08471693 0.24569476 -0.26499492 -0.0396692 -0.10508752
-0.03827456 -0.022571206 -0.082582854 0.059457116 0.0004603673 -0.026032768 0.31447813 -0.021602338
0.017246395 -0.048942048 0.34704316 0.12476017 -0.016459057 -0.052042156 0.042263456 -0.69761413
-0.12450469 0.044513747 -0.14846861 -0.08011036 -0.3145379 0.053110585 0.09708982 -0.08419207
-0.042165387 0.06661817 -0.02694723 0.06962458 -0.09063968 0.056491897 0.021273904 0.026647914
0.058598507 0.02518354 -0.016415775 -0.0055992305 -0.018320432 0.014277886 0.113664806 -0.13630213
-0.062103875 0.22301714 0.02162034 0.11695267 -0.07212802 0.042504035 -0.033628434 0.07452208
-0.040893625 0.25988865 -0.35327148 -0.18935692 0.06290049 -0.057676382 -0.26452863 0.077913575
-0.055422015 -0.118732385 -0.20852979 0.11030174 0.011018633 -0.08275961 0.20061502 0.121586494
0.21599847 0.121969454 -0.07177917 0.006468108 -0.17109442 0.114969365 -0.09664507 0.029443659
-0.010612054 -0.085227564 0.2383046 -0.14835542 0.18481673 -0.024288826 0.02635828 0.13904119
0.18018325 -0.0135569135 0.06222909 -0.013407008 0.074907266 0.09427606 -0.33013597 0.20777003
0.033966504 0.13910297 0.4512227 -0.0011592573 -0.07017119 0.07237201 0.06242188 -0.042698495
-0.04730067 0.15991616 0.043241523 0.08920569 0.049357988 0.11504958 0.037305497 0.041866757
-0.031810924 0.51255417 -0.06861382 -0.027443597 0.11008178 0.2031391 0.07551959 0.09616361
-0.46512824 0.05827843 0.13828997 -0.030977353 -0.03815015 0.021829993 0.36852965 0.026581911
-0.00932528 0.023367107 -0.12861693 0.07940198 0.81581646 -0.24988684 -0.14230394 -0.115174
0.046693355 -0.04927567 0.074527375 0.056606505 -0.043253977 -0.059449382 0.87659085 0.059593726
0.25168437 0.069588564 0.32369545 -0.03620493 0.035874184 0.019312987 0.02383124 -0.037921026
-0.03308014 0.010646209 0.023681056 -0.045739472 -0.3530606 -0.1112445 -0.051250983 -0.012641621
0.06456026 0.005400437 0.017652616 -0.005034849 -0.013272007 0.10501877 0.043156274 -0.06957254
-0.056876887 0.039291874 0.037740223 -0.07371312 0.016041674 0.03243433 0.12873282 0.37442872
0.0022599697 0.17189698 -0.005599685 -0.13104196 -0.15768507 -0.04455342 -0.007318482 -0.04110557
-0.060672656 0.30505663 -0.269436 -0.06468043 0.043088894 -0.03712915 0.17675254 -0.0067368895
0.0067979284 0.064581044 0.51615125 -0.09062592 -0.07533722 0.09277518 -0.16411805 0.037604343
0.34592235 0.29121196 0.01846978 -0.12841937 0.11111731 0.07900343 -0.099327184 -0.07022408

fc2.bias f4 [128]
00000000: ba1d 093c a58b 3bbd 36c3 54bd b38c 0ebd
00000010: ad4b aa3d 6099 02bb 1fa0 b03b b84b ff3c
00000020: 6503 c23d e588 113e 8075 bc3d c958 f33d
00000030: 94fa c73c 29d8 6b3d 8171 58bc 864d 8a3d
00000040: 47d0 cbbd bbae 1a3d 8243 733c 00fd a4bd
00000050: 2072 04bd d10d 143c 6183 d93d a02e e43c
00000060: b525 36bd f118 8cbd 1704 cabd 5790 6dbc
00000070: 9c91 35bd 768f 6c3d 132d 003e 1124 333d
00000080: 5ddd 9b3d c226 74bd acb8 c63d 393a 1dbb
00000090: c7df 88bb c39a 093e 1afa 49bd a342 ef3c
000000a0: c07f 55bd a2ca 11bc 4814 bd3d 9f07 493d
000000b0: 66cf 36bd 094d f43d 43e0 703c 8b0a a4bd
000000c0: 8554 ed3d cd75 a0ba 6de6 133e a7d3 46bd
000000d0: 97ab 9a3d 621f cbbd 373d 44bd 3326 6d3c
000000e0: 05c3 1f3d 0b05 59bd d65b 663d 26b6 843d
000000f0: 3939 db3d a484 7fbd 3086 4c3b d21c e7bd
00000100: 467e 16bd a399 01bd fc59 d63d 8372 313e
00000110: 4812 683d ecab d43c 173b 4cbc 4336 50bd
00000120: 0458 4e3d 99eb 0a3e c169 0c3d 22dc fe3c
00000130: a9d8 e93d f8dc 7abd 9d35 bf3c 00a7 a3bd
00000140: 3d9d 553b 4cd1 503d 3250 e13d 1036 603d
00000150: 2a71 bdbc 3e2f 4ebc 3646 373d 5207 9e3c
00000160: 249f 84bd 647b a13a 08ee 4ebd a4d7 983d
00000170: 1bdd 1cbd 7480 0c3c a670 18bd 7bf3 9f3d
00000180: e07f fb3d e4c2 363e 3c81 673d 91e6 373d
00000190: 461c 893d 916f 3dbd 4714 633d 1d23 aa3d
000001a0: 0905 10bd 8474 2b3c 4050 bcbd 1560 84bc
000001b0: 3c28 d43c e0f4 f03d dd0d 713d 11eb 743d
000001c0: b649 8fbd dacd a237 c302 033d 037b 7bbc
000001d0: c12d 173c c0b0 18bd 6237 02bd eca1 33bd
000001e0: a41e bcbc fe41 3dbd f7a9 7ebc 7c6e 5539
000001f0: 0051 fd3b 0b71 313e 16ca 8abd c177 7c3d
0.008368904 -0.045787472 -0.05194398 -0.03480215 0.08315215 -0.0019927844 0.0053901817 0.031164035
0.09473304 0.14212377 0.09202099 0.11882169 0.024411477 0.057579193 -0.013210655 0.06753068
-0.09951835 0.037764292 0.014847638 -0.080560684 -0.0323354 0.009036497 0.10620762 0.027854264
-0.044469554 -0.06840695 -0.09864061 -0.014499745 -0.044328317 0.057754003 0.12517194 0.043735567
0.07610581 -0.059607275 0.09703192 -0.0023991002 -0.004177067 0.13437943 -0.04931078 0.02920658
-0.052123785 -0.008898409 0.09232384 0.049079534 -0.044631384 0.11928756 0.014701906 -0.080098234
0.115883864 -0.0012242139 0.14443369 -0.04854169 0.075522594 -0.09918095 -0.04790994 0.014474439
0.039004344 -0.052983325 0.056239925 0.064800546 0.10704274 -0.062382355 0.0031207912 -0.11284794
-0.036741517 -0.03164066 0.10466382 0.17328839 0.05665806 0.025960885 -0.01246526 -0.050832998
0.050376907 0.13566436 0.034280542 0.031110827 0.11418278 -0.06124589 0.023340994 -0.07990837
0.0032594942 0.05098085 0.11001624 0.054739058 -0.02312525 -0.012584506 0.044744693 0.0192906
-0.06475666 0.0012320098 -0.050519973 0.07463005 -0.0382968 0.0085755475 -0.037216805 0.07810112
0.122802496 0.17847782 0.056519732 0.04489762 0.06694846 -0.046248976 0.05543926 0.083074786
-0.035161052 0.010464791 -0.09194994 -0.016159097 0.025898091 0.11765456 0.05885111 0.05979449
-0.06996481 1.9407762e-05 0.031985056 -0.0153491525 0.009227217 -0.037277937 -0.0317911 -0.043855593
-0.02296383 -0.046205513 -0.015543452 0.00020354422 0.007730603 0.17328279 -0.06776826 0.061637644

fc3.weight f4 [5, 128]
00000000: f853 963c 3fde 35be 259c 00bd 22b7 a3be
00000010: 7607 093e e08d 233b 237d bf3d f699 f5bc
00000020: c9f1 763d 94e4 933e e9ff 31bd 8482 d03e
00000030: 825b 47bd 663a 513e 970a 35bf 9b0f a03d
00000040: f952 86be d5d1 84be 3aaf 663d c805 08bd
00000050: ac56 6dbe 0b95 26be 9b31 a73e bca4 22be
00000060: bdc3 04be 4f65 32bf 4c2a 8ebe 383a a7be
00000070: 9c9f 173d 9ed9 26be 9f84 8c3e ce77 563e
00000080: 7d7a 8fbd 801f 3bbd 9c5c 94bd e7a2 8ebc
00000090: c36c 18be 1dea 3d3e ed0e 8fbd 1293 ebbe
000000a0: e277 673d b873 c2be 06c9 513e 380c 5d3d
000000b0: 403f de3b 6a13 afbd e281 34bd bafd 643d
000000c0: 0232 9e3b cc50 52bd 2410 443d 750d 893c
000000d0: 2f24 903c 126b 9cbd af52 01bd 9588 d8be
000000e0: 261e 213d 417d 4dbd 0a95 263e 1a33 16be
000000f0: 36e3 cf3d 3a20 47bc 66a2 4a3e 389f fbbd
00000100: a346 a9be f4fc 4ebe 1a5d d93e 6902 9a3e
00000110: 11b2 6e3b e754 98be 37a9 513d e57e b43d
00000120: 3d88 a4be c75d 68bc 31e5 b1bd 00b7 1bbf
00000130: 53cb 0c3d 908b a7be 345d f5bc 3d39 27bd
00000140: 6f49 d73e f6c7 433e a9eb c23d 8af3 4ebc
00000150: cf6c 48bd 10d1 26bd d6be 4b3d 89fc e7be
00000160: d034 4ebe ea1b 46bd b0b6 dabb 3ddf a93d
00000170: 420e 063e 6ad7 ef3c 08f7 cdbc 1073 93bc
00000180: d284 a13d 5549 f83e c929 cc3c 4957 b1be
00000190: e704 31be c59a 71bd c6a3 62be 5c70 483d
000001a0: 6257 17bf b6ae 473c 8018 acbc e0f5 373c
000001b0: 7957 8d3d 87e8 ca3d 85a3 273d dca9 94be
000001c0: 7c5f 753d bd17 90bd fc31 a4bc 5797 d53b
000001d0: 6bbf e93e 848d 39be 7c06 883b f3ff 013c
000001e0: 5ef3 4d3d 65f6 a9be b31c bebc 2808 033e
000001f0: ad4f 25bd 6c77 933e 092c a03d c5a3 dbbe
00000200: d7c8 2f3e 8a8d 21be 2a00 933c f43e 143c
00000210: 21d4 1bbe 4593 97bd 5f8c 413c c951 bebc
00000220: e036 df3d 1d02 3f3e 137b 963e 49ba 883d
00000230: 2e3e d7bc fc7a 853e b54b 8d3e 4424 5abd
00000240: 53af 8fbc e1e7 ab3d 1235 553e 8fa3 0e3c
00000250: f5bd bb3d 828e bc3c 5c1f 63bd 2771 953e
00000260: 212d 46bd f684 eabd 396d 59be 1a1f 3cbd
00000270: 68ec 5cbd 4244 99be 4242 263e 1853 713e
00000280: 0322 bcbe 1160 923d e802 573e c179 f6bd
00000290: dfc5 b3be 79ca 003e 301f 86bc 6d13 f3bd
000002a0: 4069 82bb 6145 08bf eccb d63d a09b 90be
000002b0: cbb0 993d ca33 9f3e 2b79 a83d 8c09 babd
000002c0: daf7 80be 96aa 5dbd ce64 8c3e 42c4 143c
000002d0: f529 e53d f31a 81bd 532f 653d b109 ad3d
000002e0: c329 e6be cbf0 693d c27a ed3d 1c58 95be
000002f0: 3bd2 933c 3df9 a53d e60e 873c 4fdb cfbe
00000300: 30e0 603e cf81 8fbe 84cb 5abf fa7b 913d
00000310: b94d 933e 4c7d bcbe 291d 6c3d eeca 35bd
00000320: cbf2 c13d a505 243e eff3 3abd f457 92bc
00000330: 967b 143e 9e8a d3be 574a e0bb 772e 923d
00000340: b359 33bf 71da 123e 6172 443e e5c2 033e
00000350: 40d8 84bc 7c55 26bd 3fde fa3c 8707 f2bd
00000360: 78c9 ab3d 4280 973d e0d6 8abb 5c7d afbe
00000370: 7fb8 e0bd e090 863d b62f aebd cc57 24be
00000380: aa95 6c3d e051 84be 4ea0 3b3e 8e96 a03d
00000390: e012 263c 054f 6fbd a32d 063c 0a32 d4be
000003a0: 7c45 d3bd 26a8 89bd 014b d8ba 3051 2ebd
000003b0: e017 6cbd f7c7 ac3d a7dc 063d 7af2 a13d
000003c0: abf4 a6bd f448 00bd 7e57 c43c f7ca d1bc
000003d0: c11d 35bf 90d5 75be 7c5e d93c 964c 3cbe
000003e0: dc74 39bd e31e acbe dbe9 883c 4d1d 6cbe
000003f0: f378 78bd da01 b0bc a0ca 5e3c 914e 76be
0.018350586 -0.17760561 -0.03139891 -0.31975657 0.13381752 0.002495639 0.0935004 -0.02998064
0.060289178 0.2888533 -0.043456946 0.40724576 -0.048671253 0.20432433 -0.70719284 0.078154765
-0.26235178 -0.2594134 0.056319453 -0.03320864 -0.23177594 -0.16267793 0.32655033 -0.15883154
-0.12965293 -0.69685835 -0.27766645 -0.32661605 0.03701745 -0.16293952 0.27444932 0.2094414
-0.07005785 -0.045684338 -0.07244226 -0.017411662 -0.1488524 0.18546338 -0.06985269 -0.46010643
0.056510814 -0.3797891 0.2048684 0.05396673 0.0067824423 -0.08548625 -0.04406918 0.055906035
0.0048277387 -0.051346585 0.047866955 0.01673005 0.017595379 -0.076376095 -0.031572994 -0.42291704
0.039335392 -0.05016828 0.16267791 -0.14667931 0.10150759 -0.0121536795 0.19788513 -0.12286228
-0.33061704 -0.20213681 0.42453843 0.30079964 0.0036422054 -0.29752275 0.051186766 0.08813266
-0.32135192 -0.0141825145 -0.08686293 -0.6082611 0.034373593 -0.32723665 -0.02995167 -0.04082607
0.42048213 0.19119248 0.09517605 -0.012631306 -0.048931893 -0.04072672 0.049742542 -0.45309857
-0.20137334 -0.048366465 -0.00667461 0.082945324 0.13091376 0.029277522 -0.025142208 -0.017999202
0.078866616 0.48493448 0.024922268 -0.34636906 -0.17287026 -0.05898549 -0.22132787 0.04893528
-0.5911771 0.01218765 -0.021007776 0.011228055 0.0690145 0.09907632 0.04092743 -0.29035842
0.059905514 -0.07035778 -0.020043366 0.0065182853 0.45653853 -0.1812039 0.0041511636 0.007934558
0.05028092 -0.33195797 -0.023207044 0.1279608 -0.040359188 0.2880205 0.07820899 -0.42898384
0.17166458 -0.15776649 0.017944414 0.009048212 -0.1521764 -0.07401136 0.011813252 -0.023232358
0.108991385 0.1865315 0.29390773 0.06676156 -0.026274767 0.26070392 0.27596822 -0.05325724
-0.017539656 0.08393837 0.20821026 0.008705988 0.09167091 0.023017172 -0.05544983 0.2918789
-0.048382882 -0.114511415 -0.21233071 -0.0459281 -0.053936392 -0.2993489 0.16236213 0.23566854
-0.367447 0.071472295 0.20997202 -0.120349415 -0.351119 0.12577237 -0.016372293 -0.118689395
-0.003979832 -0.53230864 0.10488114 -0.28243732 0.07504424 0.310942 0.08226236 -0.09083852
-0.25189096 -0.05411776 0.27420658 0.009079995 0.11189643 -0.06303968 0.055953335 0.08449114
-0.44953737 0.057114404 0.1159568 -0.29168785 0.018044582 0.08104179 0.016486596 -0.40597007
0.2196052 -0.28028724 -0.8546679 0.07103725 0.28770235 -0.36814344 0.057644997 -0.044382982
0.09470137 0.16017778 -0.04564279 -0.017864205 0.1450027 -0.41316694 -0.0068447995 0.07137769
-0.70058745 0.14341141 0.19184257 0.12867315 -0.016216397 -0.040608868 0.030623553 -0.11817842
0.083880365 0.0739751 -0.004237041 -0.3427533 -0.1097269 0.065706015 -0.08505194 -0.16049117
0.05775992 -0.25843716 0.1832287 0.07841216 0.010136336 -0.05842497 0.008189592 -0.41444427
-0.103159875 -0.06721525 -0.0016501845 -0.042557895 -0.057639956 0.08436578 0.032925274 0.07907577
-0.081521355 -0.031319574 0.0239675 -0.025609476 -0.70748526 -0.24007249 0.026534311 -0.1838859
-0.04527746 -0.33617315 0.016713073 -0.23058052 -0.06066222 -0.021485258 0.013598114 -0.24053408

fc3.bias f4 [5]
00000000: 0697 b9bc a4f5 313d d494 3cbd 533f e23c
00000010: 34f6 8dbd
-0.022655021 0.04344715 -0.04604037 0.027618086 -0.06931725
