gesture/gesture_mlp.pt (torch, 103984 bytes, 6 tensors)

fc1.weight f4 [128, 63]
0.0074733878 -0.102289155 -0.81140393 -0.10535659 -0.06816741 -0.14874208 0.024264148 -0.013193921
-0.16843733 -0.08859362 -0.13512667 -0.3008057 0.15894094 0.04230967 -0.11475467 0.14461261
-0.10039559 -0.09864216 0.038628593 0.09217116 0.036595684 0.06078853 0.1534588 -0.0425694
0.16691233 0.019365018 0.19227205 0.01851477 -0.1202146 0.0690833 -0.08950467 0.13191886
-0.04391573 -0.030382713 -0.027158352 0.13304521 0.05359133 -0.076230966 0.29396784 0.1115363
-0.10123979 -0.06031636 -0.10791295 0.077705674 0.08813275 0.050055407 0.07711958 0.23383318
0.122548155 -0.017613336 0.43850738 0.104999304 -0.1372746 -0.22051455 0.036088135 0.023190714
-0.0934774 -0.010093779 0.044365562 -0.0056428113 -0.023049554 -0.115068704 0.14823048 -0.058370292
0.15043046 0.77874297 0.022777012 0.11796825 0.23013738 -0.12649903 0.042241126 0.15811467
-0.0057481606 0.13028266 -0.23091115 -0.035021428 -0.14873575 -0.32264212 0.0936116 0.20195924
0.30460864 -0.13072607 0.16080172 0.21473297 -0.05133856 0.1119416 0.19360262 -0.14193688
0.12417421 -0.03722309 0.08909945 0.12512092 0.053191513 -0.023890907 -0.08684096 0.15404251
0.037114926 -0.16699791 -0.33340088 -0.0146074835 -0.04056027 -0.51829517 0.00789491 0.10688896
0.015510092 0.06013612 0.07300544 -0.02326482 0.11847868 -0.09370363 -0.27705234 -0.02259341
-0.19198379 -0.3668331 0.044123057 -0.058863852 -0.32366624 0.018956143 0.037237186 -0.16382553
0.12131496 -0.023734806 0.039785013 0.020508438 0.013735409 0.059846636 0.01105009 0.07595615
0.08620612 -0.03720411 -0.0041161254 -0.0465843 -0.007992037 -0.030042917 0.05793877 -0.026476368
-0.040949024 0.1210015 0.06356281 -0.062636174 -0.049380206 -0.01569555 -0.009235792 -0.023164824
-0.07013197 -0.08096405 -0.040723242 -0.024767011 -0.106338955 -0.045453273 0.025269076 -0.09374684
0.035360858 -0.039267935 0.10693851 -0.01450555 0.07902196 -0.093444616 0.11266491 -0.05029098
-0.04713329 -0.11847297 -0.07581036 -0.08742505 0.056931645 0.10825649 -0.11037515 0.038712263
0.016109854 -0.1099633 0.1176288 0.11475162 0.0007061511 0.1235899 -0.08537701 0.03899041
-0.011258781 0.0020172447 -0.023654379 -0.02789285 -0.03589552 0.078975365 -0.009122394 0.12191118
-0.08081728 -0.011308603 -0.12422838 -0.048227064 0.11540806 0.16547862 0.11024702 0.7559558
-0.06441606 0.17857859 0.20781732 0.09618363 0.12624744 0.18540536 0.007875243 0.05705564
0.06823662 0.048551444 -0.13406341 0.061249055 -0.0050939256 0.14738855 -0.112128764 -0.013775293
0.18444453 0.13434863 -0.057700988 0.08789414 -0.03886949 0.047663942 -0.11327886 0.039496906
0.078384645 0.26028788 0.032127053 0.09109841 0.17410687 0.008425834 0.051610854 -0.27113953
0.02724445 -0.063932635 -0.28898033 -0.22865014 0.0017186948 0.22132462 -0.088413626 -0.112408325
-0.041395985 0.13373438 -0.17470425 -0.13587919 0.042453893 0.007649014 -0.3649327 -0.23759788
-0.11948402 0.02674931 -0.056426954 0.075634375 0.032576397 0.23252884 -0.0062567983 0.030589689
0.36426336 -0.0010187923 -0.13686572 0.33517265 0.081095725 -0.04404841 -0.35136107 0.03375585
00000000: 52e3 f43b fa7c d1bd 2bb8 4fbf 32c5 d7bd
00000010: 5b9b 8bbd d84f 18be 9bc5 c63c 512b 58bc
00000020: d67a 2cbe 9270 b5bd a55e 0abe 3403 9abe
00000030: 6ac1 223e e84c 2d3d 7f04 ebbd 5415 143e
00000040: 349c cdbd e704 cabd 0439 1e3d 3cc4 bc3d
00000050: 5be5 153d 65fd 783d 4e24 1d3e 405d 2ebd
00000060: 11eb 2a3e 63a3 9e3c f7e2 443e 49ac 973c
00000070: 1233 f6bd 8c7b 8d3d 394e b7bd bd15 073e
00000080: fbe0 33bd 2be5 f8bc 317b debc 013d 083e
00000090: 9582 5b3d fb1e 9cbd f482 963e 256d e43d
000000a0: cf56 cfbd 4a0e 77bd 7701 ddbd 2724 9f3d
000000b0: f17e b43d e606 4d3d dff0 9d3d f771 6f3e
000000c0: 87fa fa3d d849 90bc 0a84 e03e e009 d73d
000000d0: b691 0cbe 91ce 61be 27d1 133d 74fa bd3c
000000e0: 1471 bfbd 6160 25bc aab8 353d 55e7 b8bb
000000f0: 6bd2 bcbc 24a9 ebbd bbc9 173e b015 6fbd
00000100: 710a 1a3e b35b 473f db96 ba3c 5699 f13d
00000110: 22a9 6b3e f688 01be 0805 2d3d d0e8 213e
00000120: 115b bcbb d168 053e f973 6cbe a172 0fbd
00000130: 2f4e 18be 5931 a5be 70b7 bf3d 67ce 4e3e
00000140: aaf5 9b3e 0edd 05be 35a9 243e f6e2 5b3e
00000150: 6248 52bd a341 e53d c43f 463e e757 11be
00000160: 0c4f fe3d 3d77 18bd c679 b63d b31f 003e
00000170: 58df 593d ddb6 c3bc acd9 b1bd 52bd 1d3e
00000180: d205 183d 8001 2bbe 85b3 aabe 3a54 6fbc
00000190: 8722 26bd feae 04bf a759 013c 99e8 da3d
000001a0: 0a1e 7e3c 4b51 763d e083 953d dd95 bebc
000001b0: f3a4 f23d b0e7 bfbd ced9 8dbe d115 b9bc
000001c0: 6697 44be 8cd1 bbbe 61ba 343d 391b 71bd
000001d0: 95b7 a5be ea49 9b3c 0586 183d e1c1 27be
000001e0: fa73 f83d 7f6f c2bc 9cf5 223d 5001 a83c
000001f0: 7b0a 613c bf21 753d 700b 353c e68e 9b3d
00000200: d68c b03d 5663 18bd 90e0 86bb 2ecf 3ebd
00000210: 08f1 02bc 901c f6bc 3451 6d3d f8e4 d8bc
00000220: 2aba 27bd a2cf f73d 382d 823d 6547 80bd
00000230: e642 4abd f493 80bc b851 17bc 28c4 bdbc
00000240: 5aa1 8fbd 7bd0 a5bd 6acd 26bd 30e4 cabc
00000250: 3dc8 d9bd 362d 3abd 1801 cf3c 58fe bfbd
00000260: 8cd6 103d 6ad7 20bd 9402 db3d b0a8 6dbc
00000270: 44d6 a13d e45f bfbd dcbc e63d eafd 4dbd
00000280: d60e 41bd f5a1 f2bd 7642 9bbd e80b b3bd
00000290: 2831 693d 94b5 dd3d 5e0c e2bd c090 1e3d
000002a0: d0f8 833c 7034 e1bd 5ee7 f03d e602 eb3d
000002b0: 001d 393a b41c fd3d 24da aebd 68b4 1f3d
000002c0: c076 38bc c033 043b d4c6 c1bc 8c7f e4bc
000002d0: 2e07 13bd d6bd a13d 1876 15bc 92ac f93d
000002e0: 8883 a5bd b847 39bc 736b febd be89 45bd
000002f0: 105b ec3d 3a73 293e 31c9 e13d 5286 413f
00000300: 91ec 83bd 4edd 363e 10ce 543e ecfb c43d
00000310: 0247 013e e7da 3d3e 2a07 013c 2db3 693d
00000320: a4bf 8b3d e1dd 463d eb47 09be 4ae0 7a3d
00000330: f2ea a6bb 06ed 163e c4a3 e5bd c4b1 61bc
00000340: 07df 3c3e b092 093e df57 6cbd d801 b43d
00000350: 9d35 1fbd 443b 433d bffe e7bd 82c7 213d
00000360: 2188 a03d 7444 853e a897 033d ce91 ba3d
00000370: 1249 323e 820c 0a3c e765 533d cdd2 8abe
00000380: c12f df3c 1def 82bd 3bf5 93be 4323 6abe
00000390: d445 e13a eca2 623e 3412 b5bd 5636 e6bd
000003a0: d68e 29bd aaf1 083e ace5 32be ea23 0bbe
000003b0: 22e4 2d3d 94a4 fa3b 75d8 babe dc4c 73be
000003c0: 0ab4 f4bd 5e21 db3c f31f 67bd 32e6 9a3d
000003d0: d46e 053d 0a1c 6e3e d405 cdbb 3a97 fa3c
000003e0: ba80 ba3e ff88 85ba 8726 0cbe c09b ab3e
000003f0: 8415 a63d 1b6c 34bd 99e5 b3be 9343 0a3d

fc1.bias f4 [128]
0.03270538 0.10870038 -0.02469512 0.06201991 -0.0064714015 -0.19191176 0.08081103 0.011219809
-0.114180416 -0.018983837 0.07317712 -0.027117519 -0.031165494 0.03085672 -0.053658836 0.19870603
0.106567204 -0.0025555242 -0.010339146 0.031287048 0.013484929 -0.07148291 0.18985596 -0.12297741
0.18204233 0.06696086 0.1416308 -0.18352427 0.13305652 0.07031197 0.04213776 0.033555135
-0.12806691 -0.060712337 -0.08074887 0.1212768 0.013829561 -0.11626712 0.036675014 -0.038542464
-0.00028112056 0.06566232 -0.07602032 -0.13582963 -0.12648588 -0.075808905 -0.017110808 0.073053405
-0.036013916 0.10271226 -0.14718448 -0.071321785 0.027737098 0.09647794 -0.102778085 -0.049271807
-0.056000844 -0.01271395 0.0764503 -0.07603423 0.07815967 -0.14759243 -0.0655337 0.121414185
-0.022268683 0.098185755 0.13586025 -0.078818254 0.1369815 0.04554416 -0.026377443 -0.05352657
-0.08917149 -0.009937666 0.045051504 -0.044950668 0.03891246 -0.0047305375 0.15446474 -0.0060441988
0.087861195 0.057340965 -0.035897687 -0.00038135052 -0.024687486 0.053934935 0.09413295 -0.06509108
0.075534835 -0.041279826 0.0012036022 -0.07601187 0.16968243 -0.016211912 -0.065615304 0.075114496
-0.064138085 -0.14721179 0.053809527 -0.022329004 -0.061384104 -0.07924129 0.0925421 0.039842896
-0.12587787 0.118643865 -0.032912273 -0.06772851 -0.1526914 -0.1554746 0.08597743 -0.094322726
-0.15859349 0.16643691 -0.108009614 -0.12479032 0.13966744 -0.08854456 -0.124270104 0.022777244
0.07452762 -0.16322933 -0.080840506 0.05608277 0.14794894 -0.11415095 -0.12733564 -0.18162239
00000000: 14f6 053d 4e9e de3d 6c4d cabc 9708 7e3d
00000010: 0d0e d4bb 8484 44be 4180 a53d 4ad3 373c
00000020: 6cd7 e9bd fe83 9bbc e3dd 953d 8f25 debc
00000030: c74e ffbc 3bc7 fc3c 5ec9 5bbd 9879 4b3e
00000040: e83f da3d 957a 27bb 8565 29bc d926 003d
00000050: e4ef 5c3c a265 92bd 9a69 423e 95db fbbd
00000060: 4e69 3a3e c622 893d aa07 113e c9ed 3bbe
00000070: f83f 083e b9ff 8f3d a598 2c3d 1c71 093d
00000080: f923 03be 80ad 78bd aa5f a5bd f95f f83d
00000090: 6295 623c 751d eebd 8a38 163d b4de 1dbd
000000a0: 5d63 93b9 f779 863d 8bb0 9bbd ec16 0bbe
000000b0: 8485 01be b341 9bbd f72b 8cbc 069d 953d
000000c0: 5483 13bd ce5a d23d 87b7 16be 2811 92bd
000000d0: e938 e33c 3a96 c53d 517d d2bd 3cd1 49bd
000000e0: 2461 65bd 2c4e 50bc fa91 9c3d d6b7 9bbd
000000f0: 2d12 a03d 7822 17be 8836 86bd 00a8 f83d
00000100: d06c b6bc 9d15 c93d f31e 0b3e 776b a1bd
00000110: e144 0c3e 838c 3a3d 8215 d8bc ad3e 5bbd
00000120: 8b9f b6bd 98d1 22bc ed87 383d 311e 38bd
00000130: ac62 1f3d a002 9bbb 012c 1e3e 6a0e c6bb
00000140: 92f0 b33d 5cde 6a3d 7409 13bd 00f0 c7b9
00000150: 693d cabc e1ea 5c3d c7c8 c03d 794e 85bd
00000160: 02b2 9a3d 0915 29bd 30c2 9d3a 1cac 9bbd
00000170: 3bc1 2d3e d8ce 84bc 5161 86bd a1d5 993d
00000180: d45a 83bd b0be 16be 6167 5c3d 51eb b6bc
00000190: e66d 7bbd 4249 a2bd b686 bd3d 4e32 233d
000001a0: 21e6 00be 8efb f23d 05cf 06bd 3fb5 8abd
000001b0: 225b 1cbe bc34 1fbe ef14 b03d 462c c1bd
000001c0: 5566 22be 706e 2a3e 2534 ddbd 1192 ffbd
000001d0: fb04 0f3e da56 b5bd 5381 febd 5897 ba3c
000001e0: f0a1 983d 9725 27be b58f a5bd 0cb7 653d
000001f0: ed7f 173e f9c7 e9bd 4664 02be 38fb 39be

fc2.weight f4 [128, 128]
0.072967485 0.16471927 -0.08626024 -0.478137 -0.031036945 -0.20921677 -0.2938123 -0.11827138
-0.07458415 0.11292005 0.16215359 -0.058271192 -0.07466602 -0.08767126 -0.23239909 0.2208474
0.06888867 -0.023123156 -0.14769116 0.0052905604 -0.11468334 -0.038222227 0.11962201 0.04262472
0.20270973 0.13960518 -0.2193771 -0.0101231765 -0.06425486 -0.69149286 0.27151194 0.07861904
-0.051059376 -0.15278618 0.06102378 -0.101595 0.2056424 -0.05909572 -0.08021399 -0.055174813
-0.41620752 -0.04844184 0.08053856 0.007992943 -0.15202776 -0.10507899 -0.15908322 -0.046675507
0.056714468 0.16058037 -0.0030660005 -0.053366266 -0.34339172 0.029176418 0.031069763 0.1505854
0.0068351403 -0.041959 0.00017478317 0.03416553 -0.124525234 -0.055638805 -0.016705714 0.07104383
-0.16438621 -0.5263112 0.2027778 -0.25556684 -0.04236683 -0.06263756 0.08097467 0.17641406
-0.06581074 0.02978281 0.0007338758 0.12356092 -0.39727804 0.03932231 0.10250919 0.0850564
0.051314764 0.00060687965 0.038220473 0.06980396 0.25577816 -0.20384325 -0.65195715 0.04876211
0.06139443 -0.0967642 -0.6306473 0.039659463 0.23261115 0.023846358 -0.13270913 -0.1615965
0.09409019 0.2842274 -0.007278959 0.6248458 0.03046453 -0.08467423 -0.049111094 0.2163673
-0.17183183 -0.7517038 -0.32677948 -0.05542662 -0.19509569 -0.2800271 0.05472498 -0.31957424
0.00049689814 0.07228731 0.15542863 0.008438347 0.1355257 0.21050024 0.072711475 -0.056122083
0.010842793 0.1236404 -0.051855933 0.18772681 0.22672468 0.08099059 0.0283437 -0.06855886
0.00160641 -0.06958664 -0.032346316 0.042826008 -0.035378367 0.21204591 0.009986477 0.41458997
0.019129325 0.020787476 0.0013800676 0.56652236 -0.022197066 -0.017026119 0.11689642 -0.06579547
-0.060442254 0.13619798 0.024054252 -0.06808306 -0.052815203 0.0014808103 9.05723e-05 0.0018079504
-0.15711316 0.028799029 -0.064925805 0.24784908 -0.10014488 0.24644245 -0.24626227 0.016089387
0.103614554 0.007826061 0.022347115 -0.0047950465 0.09209151 0.07514998 0.0454303 0.05462607
0.19306856 0.046512328 0.045069475 0.060163952 0.032786857 0.11259888 0.1038565 -0.05099753
0.049637176 -0.0024417364 0.21993951 0.004818924 0.09545689 -0.09126758 -0.01704526 0.01800235
0.08433067 -0.0074675754 -0.0060827807 -0.014542095 0.016860496 0.19671693 0.021838434 -0.029677577
0.22679289 0.43499827 -0.06829543 0.27888322 -0.23648472 0.043736756 0.03604223 -0.12906827
0.015562482 -0.035142675 -0.045050696 0.08088972 0.696992 -0.034740098 0.01566707 0.0034912191
-0.0566551 0.0825949 -0.0449464 0.07312707 -0.0099123465 0.10178916 0.4413542 -0.056994613
0.026710566 -0.12056141 0.34410328 0.034617774 -0.009325079 -0.056856025 0.22632696 0.015055376
-0.0693548 0.10294672 -0.028685665 0.3266585 0.07068018 0.26696974 -0.03694881 -0.012794451
0.46899077 0.28919178 0.22379258 0.047796063 0.038173806 0.15010947 -0.072170705 0.17789245
0.06427263 -0.19398843 0.21644287 0.1919945 -0.021343486 0.031088302 0.04501786 0.040260516
0.03440342 0.022696605 -0.0416657 0.024462856 -0.07882066 0.025286466 0.07338578 0.35530797
00000000: fa6f 953d 2bac 283e 35a9 b0bd 5fce f4be
00000010: 3141 febc ec3c 56be 916e 96be 4438 f2bd
00000020: 93bf 98bd a142 e73d 970b 263e c6ad 6ebd
00000030: 80ea 98bd fd8c b3bd 07fa 6dbe d225 623e
00000040: 8115 8d3d c66c bdbc 5a3c 17be 705c ad3b
00000050: 19df eabd e98e 1cbd 62fc f43d 4297 2e3d
00000060: 2493 4f3e a9f4 0e3e 64a4 60be aedb 25bc
00000070: 0d98 83bd ad05 31bf 9d03 8b3e 0503 a13d
00000080: a323 51bd fb73 1cbe 12f4 793d 0a11 d0bd
00000090: ec93 523e 5b0e 72bd 3b47 a4bd fcfe 61bd
000000a0: 2719 d5be f36a 46bd 67f1 a43d d5f4 023c
000000b0: 2aad 1bbe a733 d7bd b6e6 22be d12e 3fbd
000000c0: 6e4d 683d 2e6f 243e f4ee 48bb 9696 5abd
000000d0: 0ad1 afbe 6203 ef3c 0486 fe3c 0f33 1a3e
000000e0: 50f9 df3b 33dd 2bbd 0046 3739 28f1 0b3d
000000f0: 1607 ffbd 84e5 63bd 6cda 88bc 6d7f 913d
00000100: dc54 28be 55bc 06bf fca4 4f3e a8d9 82be
00000110: d788 2dbd 1f48 80bd 0cd6 a53d e3a5 343e
00000120: c8c7 86bd 14fb f33c 9261 403a 820d fd3d
00000130: 0768 cbbe 6e10 213d 57f0 d13d 0d32 ae3d
00000140: 6e2f 523d 0117 1f3a 128d 1c3d 61f5 8e3d
00000150: 5bf5 823e 49bc 50be aae6 26bf c7ba 473d
00000160: ba78 7b3d 4f2c c6bd 1a72 21bf f671 223d
00000170: 9e31 6e3e 7059 c33c e7e4 07be 8e79 25be
00000180: 5cb2 c03d 4186 913e 5584 eebb e5f5 1f3f
00000190: c090 f93c af69 adbd b728 49bd 648f 5d3e
000001a0: aff4 2fbe a96f 40bf a44f a7be 0607 63bd
000001b0: 2ac7 47be b65f 8fbe 4d27 603d 3c9f a3be
000001c0: 4542 023a 5f0b 943d af28 1f3e fe40 0a3c
000001d0: 40c7 0a3e 608d 573e c1e9 943d 45e0 65bd
000001e0: f8a5 313c 2e37 fd3d e366 54bd 753b 403e
000001f0: 842a 683e 65de a53d 0c31 e83c 9668 8cbd
00000200: 2d8e d23a 7183 8ebd 927d 04bd 536a 2f3d
00000210: e8e8 10bd 9022 593e 529e 233c 2345 d43e
00000220: 1ab5 9c3c 7f4a aa3c 62e3 b43a 9c07 113f
00000230: 9fd6 b5bc 5c7a 8bbc 6467 ef3d c6bf 86bd
00000240: 4c92 77bd 7c77 0b3e 6c0d c53c 226f 8bbd
00000250: c154 58bd c017 c23a a2f1 bd38 c0f8 ec3a
00000260: 46e2 20be f1eb eb3c d2f7 84bd 26cc 7d3e
00000270: c218 cdbd 695b 7c3e 2d2c 7cbe e4cd 833c
00000280: de33 d43d e138 003c 4c11 b73c c41f 9dbb
00000290: 799a bc3d 3ce8 993d 1f15 3a3d 96bf 5f3d
000002a0: c4b3 453e b683 3e3d c59a 383d 7a6e 763d
000002b0: 834b 063d 3e9a e63d b7b2 d43d c9e2 50bd
000002c0: 5a50 4b3d 8a05 20bb d337 613e 10e8 9d3b
000002d0: e77e c33d 7fea babd 80a2 8bbc aa79 933c
000002e0: 8fb5 ac3d 90b2 f4bb 1052 c7bb f841 6ebc
000002f0: 061f 8a3c 2a70 493e 84e6 b23c 641e f3bc
00000300: 653c 683e 18b8 de3e 79de 8bbd c8c9 8e3e
00000310: 0d29 72be 5025 333d 04a1 133d 792a 04be
00000320: c8f9 7e3c c4f1 0fbd 1487 38bd 82a9 a53d
00000330: 116e 323f a24b 0ebd 3a58 803c f0cc 643b
00000340: 2e0f 68bd 8427 a93d b719 38bd a5c3 953d
00000350: 6567 22bc d676 d03d 2df9 e13e 2f73 69bd
00000360: 1ed0 da3c e7e8 f6bd 4e2e b03e 5ecb 0d3d
00000370: 37c8 18bc dde1 68bd 41c2 673e d3aa 763c
00000380: e409 8ebd bbd5 d23d 33fe eabc c83f a73e
00000390: c5c0 903d 42b0 883e a357 17bd d19f 51bc
000003a0: 8f1f f03e f210 943e e229 653e cec5 433d
000003b0: 235c 1c3d 4cb6 193e 3cce 93bd 7029 363e
000003c0: 5ea1 833d e7a4 46be 33a3 5d3e 359a 443e
000003d0: 89d8 aebc e5ac fe3c a664 383d 36e8 243d
000003e0: 9aea 0c3d 3bee b93c a7a9 2abd 5466 c83c
000003f0: ba6c a1bd 9025 cf3c 494b 963d edea b53e

fc2.bias f4 [128]
0.04000902 -0.057462208 0.0649051 0.056350086 0.0061128745 0.033248086 0.056512278 -0.07482677
-0.13294436 0.068320855 0.0014272605 -0.067527205 -0.090641305 0.031766247 -0.014230338 0.0030465033
-0.10019008 0.051579848 0.10384794 -0.025531165 -0.038501017 0.06931959 0.068906166 -0.056639876
-0.033411887 0.12321374 0.00012082959 0.045243233 -0.019789893 -0.11927159 -0.03877046 0.046364605
-0.0047710366 -0.07639209 -0.0022167717 0.01999943 0.12320455 0.0036163419 -0.099268734 -0.039161883
0.0269712 -0.0010814965 0.06397948 -0.105618455 -0.07118903 -0.0136753945 -0.009542572 0.065380685
-0.1209947 -0.049992148 0.02863845 0.061294604 0.16040568 -0.0545445 0.023311 -0.089262575
0.13013859 -0.059012257 -0.0124487 0.20037271 -0.05971875 0.08540949 0.14141317 0.048362657
0.1587895 0.04417172 -0.082440615 0.10423105 -0.01227858 0.01984445 0.072770014 0.010517531
0.031030387 0.19403327 -0.015772041 -0.0101211695 0.18649022 0.20311119 0.05492839 -0.050358698
-0.0746611 0.013968648 0.14256324 0.07261891 -0.013816102 0.03636902 -0.07355664 -0.025650598
-0.053326573 0.01489079 0.04753839 -0.030271357 -0.046222743 0.10885217 -0.023212321 0.036572903
0.07674263 0.048654307 0.05265051 -0.049990892 0.0020379284 0.13856263 0.00051449984 0.118968196
-0.093599476 0.06037304 0.090864584 -0.014356445 0.06501895 -0.04562059 -0.0923074 0.16256978
-0.049296428 0.02147433 -0.05904746 -0.001723032 0.16605759 -0.00040763864 0.06101079 -0.022953833
-0.07700024 0.05312325 0.16767804 0.16271666 -0.067783736 0.053661253 -0.10620867 -0.026956424
00000000: 80e0 233d 7e5d 6bbd f7ec 843d 59cf 663d
00000010: 824e c83b 252f 083d 6b79 673d c73e 99bd
00000020: 9122 08be ceeb 8b3d ea12 bb3a b44b 8abd
00000030: 26a2 b9bd 531d 023d 5d26 69bc d8a7 473b
00000040: 7530 cdbd 6445 533d 3bae d43d bc26 d1bc
00000050: 3eb3 1dbd 6ef7 8d3d ad1e 8d3d 37ff 67bd
00000060: e7da 08bd 7c57 fc3d e465 fd38 f850 393d
00000070: 6a1e a2bc aa44 f4bd c6cd 1ebd d0e8 3d3d
00000080: 5b56 9cbb 7573 9cbd 4247 11bb d8d5 a33c
00000090: ab52 fc3d 2600 6d3b 684d cbbd 3668 20bd
000000a0: b5f2 dc3c 00c1 8dba ac07 833d 7d4e d8bd
000000b0: 8ecb 91bd c30e 60bc 7358 1cbc 4fe6 853d
000000c0: 12cc f7bd 91c4 4cbd 2f9b ea3c 0d10 7b3d
000000d0: 6341 243e 0e6a 5fbd b6f6 be3c 4ccf b6bd
000000e0: 0d43 053e d6b6 71bd a2f5 4bbc 812e 4d3e
000000f0: a69b 74bd 2ceb ae3d 9dce 103e ec17 463d
00000100: b799 223e 68ed 343d a0d6 a8bd 1777 d53d
00000110: 192c 49bc d490 a23c 7208 953d b951 2c3c
00000120: 7033 fe3c a8b0 463e 5e34 81bc 43d3 25bc
00000130: 4bf7 3e3e 61fc 4f3e 97fc 603d ec44 4ebd
00000140: ebe7 98bd c2dc 643c 19fc 113e 39b9 943d
00000150: ef5c 62bc aef7 143d dda4 96bd 3421 d2bc
00000160: f76c 5abd 80f8 733c 9db7 423d a3fb f7bc
00000170: 0f54 3dbd e3ed de3d c427 bebc 78cd 153d
00000180: 3d2b 9d3d bd49 473d 10a8 573d 40c3 4cbd
00000190: c48e 053b 5de3 0d3e 80df 063a 99a5 f33d
000001a0: 15b1 bfbd b949 773d 3617 ba3d 4b37 6bbc
000001b0: a828 853d a8dc 3abd aa0b bdbd b178 263e
000001c0: 0deb 49bd efea af3c c0db 71bd 5cd7 e1ba
000001d0: 000b 2a3e 55b8 d5b9 73e6 793d ad09 bcbc
000001e0: 4db2 9dbd c497 593d cbb3 2b3e 329f 263e
000001f0: 33d2 8abd e7cb 5b3d ee83 d9bd b8d3 dcbc

fc3.weight f4 [5, 128]
0.22530188 -0.46799827 0.036845412 0.046437114 -0.08064122 -0.02784369 -0.2950849 0.024740692
-0.4059289 0.06705889 0.009592837 0.07521566 -0.09621906 0.58811206 -0.24197756 0.028855233
-0.5008734 0.63522667 0.18355614 0.031162914 0.0016479956 -0.026334379 -0.08237633 0.08616337
0.24794942 0.11664395 -0.10035873 -0.42588833 -0.31091678 0.099818096 -0.19671898 -0.40659615
-0.37287652 -0.17154324 -0.019164227 -0.72187144 0.2567453 -0.057081968 0.004933095 0.06329654
0.070129186 -0.08891503 -0.011229651 0.035305575 -0.04571825 0.009047717 0.23246306 -0.45300353
-0.43933144 -0.02061001 -0.54139274 0.24468093 0.2557564 -0.054802135 -0.3885792 0.073189385
0.045691535 0.10917755 -0.40695542 0.19086714 0.047567252 -0.60337645 0.21758957 -0.050779372
0.22710875 0.27196464 -0.047573555 0.13339593 -0.0191777 -0.086191855 -0.10450122 0.06463257
-0.083545126 0.066422775 0.008119948 -0.14869717 0.16800013 0.33627614 0.04533254 0.053968348
-0.036611985 0.05626338 0.24849045 -0.49716765 0.07078803 -0.07827311 0.07436906 0.04770748
0.038647987 -0.46099898 0.17012514 -0.16293909 -0.16989188 0.18840294 0.035621963 0.10393546
-0.028104177 -0.06661666 -0.25684083 0.014621936 -0.116116434 0.1480633 0.013688326 0.20758553
-0.28250992 -0.15835115 -0.059058648 -0.2138979 0.6919396 -0.030343696 0.044570368 0.17183807
-0.0064865127 -0.37932867 -0.26075178 -0.16065773 0.09643847 0.02373954 0.07064601 -0.033653773
-0.015390565 -0.54017884 0.16169158 0.108168826 0.08947894 0.04106487 -0.7488543 -0.059058864
0.54227996 -0.2878416 -0.06943896 -0.067155555 -0.30737317 0.036476184 -0.09743115 -0.013395257
-0.1822774 0.017106107 -0.35482696 0.03139169 -0.032947753 -0.8360504 -0.38345858 0.0056446474
0.1080195 -0.78932434 0.06191616 -0.008474534 -0.06529545 0.09494647 0.008269794 -0.5289012
-0.3428736 0.18137278 0.032430593 0.389689 0.07022093 -0.28145686 -0.35225338 0.14999613
-0.29057866 -0.11527241 -0.19259466 -0.14093187 0.23289615 0.052814122 -0.045558304 -0.060026318
-0.012272391 0.25521964 0.061832 -0.060382303 0.06842267 0.2049594 -0.47431472 0.026280524
-0.14990547 0.020346291 -0.0072359215 -0.096985914 0.090840094 0.05532802 -0.20250915 0.050842036
-0.031481877 -0.3694572 -0.30223706 0.17826192 -0.01731271 -0.1574398 0.12833512 0.055385
0.17533822 0.09458992 0.060804654 -0.033049453 0.065382704 0.022182308 0.06009965 0.06860307
-0.039082825 0.112331085 0.10907158 -0.2363148 0.12988238 -0.8587815 -0.06579949 -0.01971358
-0.089679234 -0.06030958 0.22829767 0.03313567 0.04380266 0.095636636 -0.34469238 -0.015804281
0.040698983 0.06375303 -0.16935278 0.059532877 -0.3046845 0.10492084 0.05372601 0.19335845
0.104814306 0.1505091 0.069788985 -0.084527545 0.118957795 0.22858621 0.0841094 0.018677115
-0.5947859 0.07352137 0.15405104 -0.10940799 -0.41781452 0.04905624 -0.017569045 0.10320263
0.060645588 -0.097472265 -0.19647953 0.11768847 -0.64347374 -0.07862907 0.0051410175 0.037731785
0.05231167 0.0771279 0.23352338 0.2509269 -0.41921604 0.05226059 -0.017939504 -0.02931569
00000000: 89b5 663e 789d efbe 37eb 163d d834 3e3d
00000010: 3927 a5bd 7318 e4bc 5e15 97be feac ca3c
00000020: ead5 cfbe 2c56 893d 462b 1d3c ab0a 9a3d
00000030: 800e c5bd 838e 163f f7c8 77be cf61 ec3c
00000040: 3d39 00bf 379e 223f 24f6 3b3e 5e49 ff3c
00000050: 8e01 d83a 32bb d7bc ecb4 a8bd 6c76 b03d
00000060: 74e6 7d3e 06e3 ee3d e188 cdbd 090e dabe
00000070: 7c30 9fbe 6e6d cc3d b370 49be 5f2d d0be
00000080: ace9 bebe 08a9 2fbe 4cfe 9cbc 91cc 38bf
00000090: 1f74 833e c8ce 69bd cda5 a13b 9ea1 813d
000000a0: e49f 8f3d 1519 b6bd 92fc 37bc 949c 103d
000000b0: 0f43 3bbd e03c 143c cc0a 6e3e 14f0 e7be
000000c0: 0df0 e0be 53d6 a8bc b798 0abf a38d 7a3e
000000d0: 81f2 823e 3478 60bd daf3 c6be 51e4 953d
000000e0: 0c27 3b3d 7b98 df3d 765c d0be ad72 433e
000000f0: e1d5 423d e176 1abf cdcf 5e3e 08fe 4fbd
00000100: 328f 683e f33e 8b3e 7ddc 42bd f198 083e
00000110: 8d1a 9dbc 5b85 b0bd bc04 d6bd 155e 843d
00000120: b519 abbd aa08 883d 8809 053c 1244 18be
00000130: 3a08 2c3e 632c ac3e 9dae 393d ea0d 5d3d
00000140: 73f6 15bd 6e74 663d 4874 7e3e c28c febe
00000150: 51f9 903d a74d a0bd ce4e 983d eb68 433d
00000160: 5a4d 1e3d 0f08 ecbe 4935 2e3e 81d9 26be
00000170: 23f8 2dbe b3ec 403e 56e8 113d 1ddc d43d
00000180: bb3a e6bc 516e 88bd a480 83be d890 6f3c
00000190: 74ce edbd e89d 173e 0045 603c 4d91 543e
000001a0: 24a5 90be ce26 22be 7be7 71bd 0d08 5bbe
000001b0: f422 313f 5893 f8bc 6b8f 363d 52f6 2f3e
000001c0: d08c d4bb 5e37 c2be 4281 85be 7683 24be
000001d0: 8881 c53d 6c79 c23c dbae 903d 8ad8 09bd
000001e0: b528 7cbc 2949 0abf 7a92 253e 9e87 dd3d
000001f0: bc40 b73d a333 283d eab4 3fbf b5e7 71bd
00000200: dcd2 0a3f f95f 93be 0336 8ebd da88 89bd
00000210: 0460 9dbe 0d68 153d fc89 c7bd c877 5bbc
00000220: eda6 3abe 1b22 8c3c e1ab b5be 9394 003d
00000230: 39f4 06bd 6607 56bf af54 c4be bcf6 b83b
00000240: 5439 dd3d 2911 4abf cd9b 7d3d c6d8 0abc
00000250: 9fb9 85bd 4b73 c23d 087e 073c 1266 07bf
00000260: 218d afbe c9b9 393e f1d5 043d 5185 c73e
00000270: fecf 8f3d 1d1b 90be 8e5a b4be 9698 193e
00000280: bac6 94be f113 ecbd 8937 45be 7250 10be
00000290: 547c 6e3e 9f53 583d 589b 3abd 28de 75bd
000002a0: 2312 49bc 26ac 823e 8d43 7d3d 6f53 77bd
000002b0: 2f21 8c3d e1e0 513e 61d9 f2be 414a d73c
000002c0: d280 19be 44ad a63c 4f1b edbb 8da0 c6bd
000002d0: 5f0a ba3d a29f 623d 8f5e 4fbe bd3f 503d
000002e0: 24f3 00bd 7e29 bdbe d1be 9abe 4b8a 363e
000002f0: 62d3 8dbc e637 21be 486a 033e 62db 623d
00000300: dd8b 333e 5cb8 c13d 4d0e 793d dd5e 07bd
00000310: 5ee7 853d acb7 b53c 0d2b 763d c47f 8c3d
00000320: 5015 20bd d70d e63d ec60 df3d 82fc 71be
00000330: e3ff 043e 1bd9 5bbf e2c1 86bd 607e a1bc
00000340: bfa9 b7bd 2e07 77bd ddc6 693e 45b9 073d
00000350: 6b6a 333d 24dd c33d 857b b0be fb77 81bc
00000360: fab3 263d f390 823d d16a 2dbe bfd8 733d
00000370: 9bff 9bbe bde0 d63d ce0f 5c3d c2ff 453e
00000380: e2a8 d63d 0f1f 1a3e 87ed 8e3d c71c adbd
00000390: 25a0 f33d 8112 6a3e 8d41 ac3d c000 993c
000003a0: e443 18bf 5f92 963d 8ebf 1d3e 4c11 e0bd
000003b0: c9eb d5be 32ef 483d f5ec 8fbc e75b d33d
000003c0: 8267 783d 8a9f c7bd ee31 49be a706 f13d
000003d0: b2ba 24bf 4708 a1bd fb75 a83b a58c 1a3d
000003e0: c344 563d 3cf5 9d3d c120 6f3e 7e79 803e
000003f0: 7ca3 d6be 330f 563d def5 92bc 7527 f0bc

fc3.bias f4 [5]
-0.058214888 0.0923112 0.019128732 -0.036661763 0.08296162
00000000: bc72 6ebd a80d bd3d dcb3 9c3c a52a 16bd
00000010: c8e7 a93d
