gesture/gesture_mlp.pt (torch, 103984 bytes, 6 tensors)

fc1.weight f4 [128, 63]
0.05589592 0.005388855 0.3365955 -0.13857889 0.09749899 0.3539916 -0.011828621 -0.056290362
0.25183505 -0.032132052 -0.06824918 0.29205373 0.102679074 0.055724945 0.25962925 0.06444614
0.104411446 -0.20035432 -0.0021735127 -0.0851295 -0.08558508 -0.009022175 0.0802136 0.0059433645
-0.039812487 -0.037898574 -0.08243207 0.06411059 0.0013098039 -0.07378075 0.027187064 0.0029965
-0.05539261 0.028346067 -0.11212362 -0.25384727 0.06969017 0.013401619 -0.14295863 -0.06261168
0.020064127 -0.17222856 -0.08501253 -0.05518152 -0.061527044 0.0055481647 -0.023129413 -3.712249e-05
0.048537545 0.13847002 -0.20455772 -0.0010272466 -0.073463805 0.12609671 -0.09329496 0.116033934
0.045890085 0.03778963 0.13817169 0.14986138 0.08642716 0.083598934 0.20561156 0.03445994
0.098669656 -0.37814018 0.13875009 0.05974307 0.0011545987 0.10795281 0.11476758 -0.1274894
-0.034831494 0.12096527 -0.10645693 0.0022644112 0.10453424 -0.3321521 -0.025259074 0.086265296
0.10429067 0.035755843 0.11263072 0.025595734 -0.11559538 -0.0066630053 -0.0888923 -0.001584298
0.15166229 0.14485455 -0.033880573 -0.0130029265 -0.0151601685 0.103631586 -0.117300436 -0.043592725
0.013098711 -0.12072485 -0.035498254 -0.08961556 -0.15933679 -0.014544009 0.12662663 -0.04878039
-0.0865737 -0.02070853 0.11043252 -0.054927472 0.05039011 -0.014418011 0.1918457 -0.13831758
0.08925606 0.25086865 0.14953576 -0.086101875 -0.046601113 0.12177059 0.1074677 -0.20693618
0.12423066 0.13677634 -0.039903894 0.052083958 0.026851283 0.26109633 0.069799915 -0.014643617
-0.10978883 0.002654031 0.043299153 0.074573696 -0.059850834 -0.063027315 -0.025216006 0.08416356
-0.062136903 -0.0644231 0.08546983 -0.08282168 -0.002175063 -0.0908337 0.08288014 -0.06478752
-0.05336999 -0.12245544 0.06828837 -0.051761113 0.11083262 -0.109634414 -0.098280385 0.030781478
-0.10200923 -0.087178215 -0.029295065 -0.015740663 0.034464315 -0.060976207 0.10739763 -0.10328856
0.037027344 -0.085100845 0.09943424 -0.09024815 -0.04447192 -0.09773811 -0.056110978 0.054434836
0.07380019 -0.030556314 0.089830324 0.05121842 -0.09040814 0.04589215 0.06562962 -0.01925806
0.04404159 0.009332031 -0.057829387 0.06356396 -0.055837937 -0.049377277 0.036536723 0.07166508
-0.09851603 0.117059216 0.007068351 0.012769282 0.0114970505 -0.13713786 0.21560122 -0.3342205
-0.024565855 0.1793941 -0.24036492 -0.009786368 0.15119223 0.0131893745 0.12543516 0.041334003
0.10856829 0.06703695 -0.00576168 -0.02790051 0.06447668 -0.083226934 -0.044054337 0.05031787
-0.17855148 -0.14560418 0.1692755 -0.33115292 0.033930868 0.027436852 -0.4091664 -0.12709603
0.011796682 -0.08041326 0.1396393 0.09284992 0.038655303 0.011060836 -0.0263134 -0.010521988
0.19348156 -0.11698314 0.24755435 0.2399976 -0.052405316 0.020475853 0.17209315 -0.08122543
0.049311932 -0.081445694 -0.026727458 -0.08414695 0.15519048 0.13050066 0.133942 0.0314352
0.07441502 0.0064010425 0.23336056 0.07700738 0.03892624 0.056262445 0.0016274138 -0.12022061
-0.036218505 0.13519797 -0.1182633 -0.35366738 0.029209077 0.014184371 -0.01162751 0.03455682
00000000: 1ff3 643d fe94 b03b 3f56 ac3e a0e7 0dbe
00000010: 8dad c73d 633e b53e d5cc 41bc b990 66bd
00000020: 86f0 803e e69c 03bd 3ac6 8bbd 1188 953e
00000030: 6849 d23d d73f 643d 20ee 843e 56fc 833d
00000040: abd5 d53d af29 4dbe 7e71 0ebb 6058 aebd
00000050: 3b47 afbd bfd1 13bc 0747 a43d 8ec0 c23b
00000060: 6b12 23bd 893b 1bbd 25d2 a8bd 6a4c 833d
00000070: baad ab3a 5d1a 97bd 68b7 de3c ee60 443b
00000080: 5de3 62bd 0336 e83c 12a1 e5bd 45f8 81be
00000090: b8b9 8e3d 7792 5b3c bf63 12be 8d3a 80bd
000000a0: 865d a43c af5c 30be 0d1b aebd 0406 62bd
000000b0: c803 7cbd 61cd b53b e579 bdbc f8b3 1bb8
000000c0: 4ecf 463d 16cb 0d3e 9477 51be ada4 86ba
000000d0: 3174 96bd 7f1f 013e 6e11 bfbd 33a3 ed3d
000000e0: 3ef7 3b3d 4dc9 1a3d e17c 0d3e 4375 193e
000000f0: b900 b13d eb35 ab3d d68b 523e de25 0d3d
00000100: 5113 ca3d 979b c1be 8114 0e3e 26b5 743d
00000110: e755 973a 5d16 dd3d 440b eb3d 958c 02be
00000120: 78ab 0ebd a4bc f73d 1706 dabd 8466 143b
00000130: 0c16 d63d d70f aabe 1eec cebc dcab b03d
00000140: 5996 d53d b874 123d efaa e63d 25ae d13c
00000150: 45bd ecbd 5755 dabb 2b0d b6bd 38a8 cfba
00000160: 5c4d 1b3e c054 143e 5bc6 0abd 3a0a 55bc
00000170: 5b62 78bc cc3c d43d 363b f0bd 498e 32bd
00000180: fa9b 563c 973e f7bd 9e66 11bd 5d88 b7bd
00000190: 2f29 23be ff49 6ebc 69aa 013e f2cd 47bd
000001a0: 8d4d b1bd efa4 a9bc 722a e23d a1fb 60bd
000001b0: dc65 4e3d 8539 6cbc 3373 443e 20a3 0dbe
000001c0: e2cb b63d db71 803e e71f 193e 2e56 b0bd
000001d0: cfe0 3ebd dc62 f93d 0718 dc3d 14e7 53be
000001e0: a56c fe3d 190f 0c3e 4472 23bd fd55 553d
000001f0: 39f7 db3c 6bae 853e 42f3 8e3d c8eb 6fbc
00000200: f7d8 e0bd 40ef 2d3b 745a 313d 18ba 983d
00000210: 2626 75bd 7714 81bd cc91 cebc f25d ac3d
00000220: 4483 7ebd 42f0 83bd ce0a af3d 6a9e a9bd
00000230: 808b 0ebb 0507 babd 10bd a93d 52af 84bd
00000240: 7e9a 5abd ebc9 fabd c6da 8b3d 7603 54bd
00000250: 36fc e23d 0288 e0bd 3a47 c9bd 7029 fc3c
00000260: 37ea d0bd 7e8a b2bd 34fc efbc 90f2 80bc
00000270: 742a 0d3d 30c2 79bd 4af3 db3d f488 d3bd
00000280: fca9 173d 5a49 aebd 2ea4 cb3d 06d4 b8bd
00000290: 3028 36bd eb2a c8bd a0d4 65bd 10f7 5e3d
000002a0: 8e24 973d 3c51 fabc f6f8 b73d 68ca 513d
000002b0: e727 b9bd 68f9 3b3d d268 863d 14c3 9dbc
000002c0: f464 343d 60e5 183c 82de 6cbd d22d 823d
000002d0: 52b6 64bd d43f 4abd 88a7 153d 24c5 923d
000002e0: c6c2 c9bd bebc ef3d a09d e73b 4036 513c
000002f0: 205e 3c3c de6d 0cbe 91c6 5c3e f31e abbe
00000300: 553e c9bc 16b3 373e 3922 76be 0157 20bc
00000310: 23d2 1a3e 3f18 583c 1372 003e d84d 293d
00000320: 0d59 de3d ab4a 893d 7acc bcbb 9c8f e4bc
00000330: 590c 843d e272 aabd 5272 34bd 1c1a 4e3d
00000340: 33d6 36be 4319 15be 8f56 2d3e e08c a9be
00000350: 18fb 0a3d 40c3 e03c 427e d1be 7625 02be
00000360: df46 413c b5af a4bd 9bfd 0e3e 1928 be3d
00000370: 0655 1e3d 8238 353c 338f d7bc 6b64 2cbc
00000380: 0820 463e db94 efbd e37e 7d3e eec1 753e
00000390: f5a6 56bd fabc a73c 3039 303e 8559 a6bd
000003a0: 4ffb 493d 00cd a6bd 8bf3 dabc 3c55 acbd
000003b0: 41ea 1e3e f7a1 053e 1728 093e 32c2 003d
000003c0: e766 983d d6bf d13b 12f6 6e3e 0cb6 9d3d
000003d0: 1f71 1f3d 7373 663d f24e d53a 3936 f6bd
000003e0: db59 14bd 5671 0a3e 0734 f2bd e413 b5be
000003f0: e047 ef3c 9065 683c 5081 3ebc 748b 0d3d

fc1.bias f4 [128]
0.1642542 -0.13427909 0.026660189 -0.060439736 -0.04799957 0.109029815 -0.089742325 -0.05795466
-0.10324524 -0.12391635 0.06363632 -0.112188876 -0.04751368 -0.07530298 -0.09249869 -0.101570465
0.042125255 0.10935348 -0.14976248 -0.09285541 -0.087510996 -0.09467381 -0.018003156 -0.054710805
0.1278873 -0.0020553765 0.07438821 0.05127286 0.037114177 -0.011291828 -0.07116015 0.18220845
0.14037587 0.00085168227 -0.03796739 -0.0973312 0.029071152 -0.011532574 0.023372784 0.09546261
0.032881394 -0.12262849 -0.007931486 -0.10289699 -0.12131974 -0.10810615 0.022891734 0.07657189
0.05626698 0.11712005 -0.008174046 -0.13795945 -0.07578998 0.2002524 0.004784882 0.07677082
-0.041102417 0.15359488 0.082879856 0.11619193 -0.052041654 0.12159747 0.063356906 -0.12756748
0.03641846 0.08969515 -0.05856723 -0.064881146 -0.015043125 0.08799998 0.032701414 0.021860803
-0.030272925 0.038921576 0.087510794 -0.054560717 -0.006243551 0.1100587 0.00892134 -0.083281465
-0.003807187 0.02723022 0.08083028 -0.11672251 0.09194155 0.031119928 0.04450197 0.17670429
-0.04533591 0.01713145 0.014021233 -0.11782843 -0.03120621 -0.10284002 -0.05030186 0.031177908
0.032776203 0.07514265 -0.116706714 -0.11032295 -0.007121958 0.13922644 0.08053024 0.07569036
0.025702702 -0.13538764 -0.061893526 -0.114382155 0.022853762 0.2030023 -0.100745924 -0.08663502
0.0370477 0.08609393 -0.00072997005 -0.04474909 0.003637985 -0.0031955226 -0.06974327 -0.09206359
0.08196851 -0.076975234 0.04203022 0.042946298 -0.018591017 0.042547897 0.16697791 0.16408522
00000000: 4132 283e 7580 09be 7866 da3c a88f 77bd
00000010: 329b 44bd 064b df3d d3ca b7bd de61 6dbd
00000020: 3e72 d3bd dbc7 fdbd c253 823d 48c3 e5bd
00000030: b49d 42bd 7338 9abd f46f bdbd 2d04 d0bd
00000040: 888b 2c3d b8f4 df3d 565b 19be fa2a bebd
00000050: f738 b3bd 58e4 c1bd 5b7b 93bc 7018 60bd
00000060: e3f4 023e 7fb3 06bb d958 983d 7e03 523d
00000070: 0905 183d 5c01 39bc 6abc 91bd da94 3a3e
00000080: b1be 0f3e 6e43 5f3a b283 1bbd 9555 c7bd
00000090: a026 ee3c 1ff3 3cbc 4878 bf3c e781 c33d
000000a0: a4ae 063d a524 fbbd 10f3 01bc a8bb d2bd
000000b0: 7c76 f8bd c266 ddbd 7287 bb3c b9d1 9c3d
000000c0: 3478 663d a3dc ef3d 6fec 05bc 3e45 0dbe
000000d0: c737 9bbd f70e 4d3e 80ca 9c3b 053a 9d3d
000000e0: 025b 28bd fa47 1d3e eabc a93d 09f6 ed3d
000000f0: a129 55bd 1808 f93d 44c1 813d 0da1 02be
00000100: 862b 153d 17b2 b73d 31e4 6fbd 68e0 84bd
00000110: 7077 76bc 5539 b43d ebf1 053d 6d15 b33c
00000120: edfe f7bc 3b6c 1f3d dc38 b33d 0f7b 5fbd
00000130: b496 ccbb 7566 e13d d02a 123c 798f aabd
00000140: 0082 79bb e911 df3c 598a a53d 360c efbd
00000150: da4b bc3d 38ef fe3c b347 363d f8f1 343e
00000160: 26b2 39bd 4157 8c3c 50b9 653c 0850 f1bd
00000170: 2aa4 ffbc ca9d d2bd 5309 4ebd d068 ff3c
00000180: 5740 063d 64e4 993d ee03 efbd 00f1 e1bd
00000190: 505f e9bb 6091 0e3e 0aed a43d 8c03 9b3d
000001a0: 798e d23c 0fa3 0abe 1184 7dbd 3141 eabd
000001b0: d037 bb3c d6df 4f3e e153 cebd b46d b1bd
000001c0: 54bf 173d 0452 b03d 765b 3fba d24a 37bd
000001d0: 436b 6e3b f96b 51bb 8fd5 8ebd d68b bcbd
000001e0: 1bdf a73d 31a5 9dbd e127 2c3d 75e8 2f3d
000001f0: 304c 98bc b446 2e3d 42fc 2a3e f505 283e

fc2.weight f4 [128, 128]
0.014664111 -0.11610996 0.033989884 0.15785708 -0.043012343 -0.034672208 0.032549653 0.13035113
0.03029893 0.067999594 0.03208106 0.017550834 0.1460119 0.20255204 -0.011951916 0.025865402
-0.023320064 0.0023319314 0.07912767 0.139767 0.022675097 -0.062201045 0.096371666 0.020234324
0.08193833 0.14893588 0.017365005 -0.15955523 -0.011102513 -0.047684755 0.052315228 -0.056152847
-0.16726689 0.07780146 0.12738729 -0.07858375 0.02976612 -0.06496073 0.0023266673 0.03776143
0.006158406 0.019926228 -0.080021754 -0.056794345 -0.0001014173 -0.020941876 0.10509583 -0.08009422
-0.06985702 0.050093822 0.017598547 0.18714336 -0.3612515 -0.0047735428 -0.076918714 0.068467386
0.08561979 0.044567987 -0.112974524 0.0053809746 0.23915628 0.00755617 -0.03965534 0.16673894
0.07704267 -0.06457812 0.03765305 -0.14581475 0.06382351 0.038708307 -0.056946248 0.0740407
0.1570847 0.27290806 0.022748085 -0.17528923 0.043070335 -0.12012365 -0.06448123 -0.07364051
-0.02213452 0.11461298 0.13115725 -0.087873094 0.09572235 -0.018273853 0.13710251 0.025874304
0.04765468 0.0039553656 -0.047972795 -0.0008529052 -0.042837445 -0.04650129 -0.017137691 -0.02991677
0.074970506 0.11547632 0.093162246 0.062274035 -0.04256541 0.020578174 0.07811977 0.13330477
0.119027816 0.019767128 0.091393374 0.11317715 0.008781999 0.030285416 0.0455177 0.04310762
0.007389035 -0.008423418 0.054774713 0.035341367 -0.1350474 -0.0044270507 -0.027702043 0.026471004
0.058127284 -0.00072209554 0.12724273 0.2676164 -0.03809782 0.07168778 -0.101151414 -0.12642516
0.12216363 0.1658539 0.052491523 -0.10082699 -0.013763741 0.019267457 0.07060316 0.049242288
-0.07882028 -0.021967717 -0.055459794 -0.039335273 0.118851185 -0.07731589 -0.053226516 0.0046555977
0.05856929 -0.058274128 -0.032306697 0.10117886 0.087875046 -0.023293823 0.12666777 -0.07136726
-0.029567292 -0.19659258 0.14855759 -0.11406017 -0.14117941 -0.11598395 -0.064410955 -0.24982078
-0.034807455 0.09966428 0.20955732 0.03139598 -0.014363095 -0.11440062 -0.057593428 -0.08757949
0.07010077 -0.0644565 -0.032478217 0.06599905 0.02190826 -0.070018604 0.11460725 0.0723911
-0.076920554 0.040952645 -0.0112671275 0.14907897 -0.157693 -0.15018666 -0.059380323 0.11477043
0.046907138 -0.08330084 -0.06321958 0.055651374 0.09890617 -0.005081475 0.0052668303 0.15164803
0.0006981887 0.08254522 -0.036023926 0.052505903 0.03886976 -0.09713507 0.14501967 0.06913028
-0.052792292 -0.42121688 0.04234753 -0.1554845 0.11380234 -0.53545076 0.07868672 -0.0585427
0.048973463 0.12907779 0.22498062 0.025061935 0.0042926013 -0.05518508 -0.18731883 -0.032054942
0.01124642 0.04228948 0.06957763 0.0145797655 -0.018539837 -0.06399541 0.034766912 0.018824793
-0.024725832 0.1431902 0.03980099 0.014340276 0.053960048 0.023860382 0.114292346 -0.06956104
-0.08982867 0.14502148 0.07314114 0.10335111 0.06368426 -0.0957837 0.18220264 0.00053872867
0.060228903 0.08694085 0.0485264 -0.019926883 -0.062367328 0.042975403 0.05591212 -0.054800473
-0.023904623 -0.04161889 0.059097283 0.010069618 0.028393079 -0.30493087 -0.23443495 0.029993659
00000000: bd41 703c 0fcb edbd fa38 0b3d 49a5 213e
00000010: b62d 30bd 7204 0ebd c952 053d c47a 053e
00000020: 7635 f83c 5f43 8b3d 6e67 033d c4c6 8f3c
00000030: 2584 153e cd69 4f3e f8d1 43bc aee3 d33c
00000040: b809 bfbc 51d3 183b b00d a23d 151f 0f3e
00000050: 20c1 b93c 86c6 7ebd 825e c53d 74c2 a53c
00000060: 48cf a73d a682 183e 0e41 8e3c 7262 23be
00000070: 51e7 35bc 1751 43bd 7e48 563d 8700 66bd
00000080: 0348 2bbe 5f56 9f3d d071 023e 84f0 a0bd
00000090: 14d8 f33c 220a 85bd 007b 183b bbab 1a3d
000000a0: 74cc c93b 543c a33c 72e2 a3bd 30a1 68bd
000000b0: 00b0 d4b8 4c8e abbc 7c3c d73d 7008 a4bd
000000c0: 3311 8fbd 2e2f 4d3d d42a 903c 82a2 3f3e
000000d0: f5f5 b8be 616b 9cbb 8f87 9dbd a138 8c3d
000000e0: 6e59 af3d ec8c 363d 305f e7bd e352 b03b
000000f0: 62e5 743e c099 f73b a36d 22bd 9dbd 2a3e
00000100: 8cc8 9d3d 8941 84bd 163a 1a3d 7650 15be
00000110: e7b5 823d 9a8c 1e3d 7840 69bd a7a2 973d
00000120: d0da 203e 9bba 8b3e 315a ba3c 057f 33be
00000130: 856a 303d 6303 f6bd bc0e 84bd d6d0 96bd
00000140: 7453 b5bc 36ba ea3d 164e 063e cff6 b3bd
00000150: 140a c43d 0cb3 95bc 9a64 0c3e 59f6 d33c
00000160: 8e31 433d 039c 813b 1f7f 44bd 8095 5fba
00000170: 5176 2fbd 2378 3ebd 5864 8cbc 0414 f5bc
00000180: 238a 993d d97e ec3d d9cb be3d 0f13 7f3d
00000190: 1159 2ebd 8f93 a83c 42fd 9f3d 0c81 083e
000001a0: dbc4 f33d acee a13c 732c bb3d 6cc9 e73d
000001b0: 60e2 0f3c 1f19 f83c c570 3a3d 9e91 303d
000001c0: b81f f23b 6002 0abc 735b 603d 1cc2 103d
000001d0: de49 0abe cb10 91bb 65ef e2bc b8d9 d83c
000001e0: e016 6e3d 034b 3dba eb4b 023e 0405 893e
000001f0: 760c 1cbd 0bd1 923d 7928 cfbd 9975 01be
00000200: ed30 fa3d 9bd5 293e 5a01 573d 627e cebd
00000210: 5081 61bc c9d6 9d3c 6498 903d 48b2 493d
00000220: 876c a1bd a4f5 b3bc cf29 63bd 061e 21bd
00000230: 4068 f33d cb57 9ebd 0c04 5abd fc8d 983b
00000240: 5ae6 6f3d dab0 6ebd 0754 04bd dd36 cf3d
00000250: d5f7 b33d b0d2 bebc 32b5 013e ff28 92bd
00000260: 1b37 f2bc 914f 49be 7b1f 183e 6198 e9bd
00000270: 5691 10be fe88 edbd e4e9 83bd 05d1 7fbe
00000280: 4392 0ebd c91c cc3d 3296 563e 1299 003d
00000290: 3053 6bbc df4a eabd 16e7 6bbd e05c b3bd
000002a0: fe90 8f3d c501 84bd e107 05bd 832a 873d
000002b0: f478 b33c ea65 8fbd 35b7 ea3d c941 943d
000002c0: 8688 9dbd f6bd 273d c299 38bc 28a8 183e
000002d0: 467a 21be 88ca 19be c838 73bd c20c eb3d
000002e0: b321 403d a199 aabd 4479 81bd b2f2 633d
000002f0: 518f ca3d 8082 a6bb 6095 ac3b 9f49 1b3e
00000300: a706 373a 780d a93d d38d 13bd 6e10 573d
00000310: e635 1f3d c0ee c6bd 0980 143e 2d94 8d3d
00000320: bb3c 58bd bda9 d7be 9b74 2d3d 5437 1fbe
00000330: 3411 e93d 4d13 09bf 8126 a13d 78ca 6fbd
00000340: 6698 483d f82c 043e 5261 663e b04e cd3c
00000350: f3a8 8c3b c009 62bd 82d0 3fbe 0b4c 03bd
00000360: e842 383c bc37 2d3d b77e 8e3d f8df 6e3c
00000370: dbe0 97bc 0710 83bd c067 0e3d 7436 9a3c
00000380: d48d cabc 74a0 123e 5d06 233d 7af3 6a3c
00000390: 3605 5d3d d976 c33c 1b12 ea3d 0576 8ebd
000003a0: 18f8 b7bd 8380 143e 06cb 953d bfa9 d33d
000003b0: e56c 823d 3f2a c4bd 5493 3a3e 7839 0d3a
000003c0: 95b2 763d 0b0e b23d 9ec3 463d b43d a3bc
000003d0: e274 7fbd fa06 303d 1b04 653d 7676 60bd
000003e0: a1d3 c3bc 9278 2abd fe0f 723d 0afb 243c
000003f0: 9a98 e83c e61f 9cbe b70f 70be 43b5 f53c

fc2.bias f4 [128]
0.023882473 -0.057231463 0.111543424 0.12871867 0.06996981 0.12935865 0.13472448 -0.025633601
-0.07853844 0.023446705 0.014460501 0.008235799 -0.069321774 0.078782625 -0.061617818 0.06277371
-0.02299967 0.08962685 -0.028296351 -0.012095837 -0.09533721 -0.059008904 0.07607836 -0.056837637
-0.021495376 -0.031142466 -0.08675257 0.15879862 0.04974844 0.013292052 0.0053161075 -0.030446438
-0.012275874 0.004572533 -0.024574384 -0.080776595 0.011309277 0.09343977 0.07528315 0.00032004315
-0.0054078586 0.057782196 0.11317288 0.11447028 0.07906059 -0.06825527 -0.027774524 0.090815514
0.073970266 0.040854994 0.124662645 0.03373971 0.03519955 -0.053298328 0.099960424 -0.01710784
0.028984407 0.08091256 0.044906463 -0.05117962 -0.006600779 -0.04794899 -0.08263357 0.13346037
-0.026260804 0.03217476 -0.036480796 -0.07892593 0.005066915 -0.08413905 0.079670765 0.0013234159
0.0003026956 -0.026014153 0.019380227 0.042472787 -0.03615547 0.036356412 -0.07501603 0.039538916
-0.04383274 0.13841848 0.03165617 0.04759493 -0.0098543195 0.06922783 0.05818843 0.13358758
0.09782755 0.03796696 0.017358439 -0.024813205 -0.05701431 -0.08045034 0.014290282 0.10740034
0.10598049 -0.009742002 0.0065911002 0.07758325 0.10127003 0.04352895 0.031053782 -0.011052521
0.053589996 0.028555058 -0.04784388 0.059350785 0.12755226 0.111394785 -0.008779949 -0.034189228
-0.003473622 0.037410025 0.0691892 -0.039169457 0.0063471203 -0.0713264 0.092226736 0.0793825
0.0026196768 -0.05654689 0.13447832 0.044752058 -0.036392093 0.06756631 -0.029618707 0.114439175
00000000: 2da5 c33c 8a6b 6abd e170 e43d d4ce 033e
00000010: 554c 8f3d 9876 043e 37f5 093e 8ffd d1bc
00000020: c3d8 a0bd 4e13 c03c bdeb 6c3c 72ef 063c
00000030: 93f8 8dbd c958 a13d f762 7cbd 818f 803d
00000040: ce69 bcbc 488e b73d c0cd e7bc 9e2d 46bc
00000050: 2840 c3bd 52b3 71bd f9ce 9b3d 95ce 68bd
00000060: 1217 b0bc 7c1e ffbc 55ab b1bd 1b9c 223e
00000070: 05c5 4b3d e8c6 593c be32 ae3b cf6a f9bc
00000080: bf20 49bc 30d5 953b 3850 c9bc 336e a5bd
00000090: 8c4a 393c 5a5d bf3d 0d2e 9a3d 77cb a739
000000a0: 6834 b1bb 06ad 6c3d 2fc7 e73d 656f ea3d
000000b0: 85ea a13d 6bc9 8bbd 6687 e3bc 7cfd b93d
000000c0: b97d 973d 9157 273d 214f ff3d a632 0a3d
000000d0: 672d 103d 594f 5abd 0db8 cc3d be25 8cbc
000000e0: b570 ed3c 7cb5 a53d d7ef 373d b9a1 51bd
000000f0: 594b d8bb 2966 44bd ca3b a9bd d6a9 083e
00000100: e620 d7bc aec9 033d e36c 15bd eba3 a1bd
00000110: 5d08 a63b 1851 acbd 6d2a a33d 7876 ad3a
00000120: 1eb3 9e39 a21b d5bc 48c3 9e3c f2f7 2d3d
00000130: c217 14bd 76ea 143d 01a2 99bd 8ff3 213d
00000140: f689 33bd 93bd 0d3e e6a9 013d e7f2 423d
00000150: 0374 21bc 52c7 8d3d fe56 6e3d 2fcb 083e
00000160: cf59 c83d 3e83 1b3d 4933 8e3c 1045 cbbc
00000170: d687 69bd 26c3 a4bd c921 6a3c b6f4 db3d
00000180: 4d0c d93d eb9c 1fbc 28fa d73b f8e3 9e3d
00000190: a966 cf3d 6a4b 323d 8064 fe3c a215 35bc
000001a0: 2f81 5b3d 4cec e93c f2f7 43bd cf19 733d
000001b0: 0f9d 023e f322 e43d c6d9 0fbc 010a 0cbd
000001c0: b5a5 63bb 413b 193d 11b3 8d3d 2770 20bd
000001d0: 81fb cf3b 9313 92bd 5fe1 bc3d 4b93 a23d
000001e0: e2ae 2b3b b69d 67bd afb4 093e ef4d 373d
000001f0: e00f 15bd 3560 8a3d eea2 f2bc 165f ea3d

fc3.weight f4 [5, 128]
-0.028823273 0.15424915 -0.09364804 0.08885518 -0.15594865 -0.07950382 0.2610868 0.05112656
-0.08505578 0.07367353 0.024460524 -0.040061988 0.0633545 -0.103835136 -0.03776934 -0.3331001
-0.5070324 0.083144546 -0.17512168 0.054047015 0.0667529 -0.28647918 -0.20471786 -0.23849444
-0.29776952 -0.2514361 0.022742786 -0.07083284 0.23427927 0.1757929 -0.013506588 0.07650722
-0.087633386 0.050304245 0.032453567 -0.35245007 -0.19792308 0.07193682 0.04353675 -0.2081539
-0.22098172 0.01564437 0.07585988 -0.20719874 0.056213044 -0.20483199 -0.065555714 0.3282479
-0.101532914 -0.3145831 -0.05260039 -0.2284499 -0.3577562 -0.045724995 -0.22330911 0.13070633
-0.051332828 -0.12081554 0.06633617 -0.040038716 -0.28371203 -0.13918209 0.05825559 0.20035562
0.052418627 -0.13999613 -0.020976126 -0.07241136 0.014040377 0.18071254 0.36559767 -0.011127117
0.046737388 -0.031245954 -0.042036213 -0.28256893 -0.07096098 0.033538047 0.022368165 -0.20154542
-0.32487735 -0.0039690267 -0.011127859 -0.26189363 0.042905357 0.180635 0.029186288 0.066725984
-0.27637058 -0.08158054 -0.20342559 0.033102937 -0.4185565 -0.26231387 0.046428192 0.18003437
-0.22132005 -0.08471501 0.1274574 0.0014344009 -0.17358989 -0.19011791 0.052956734 0.04288937
-0.029836247 0.21007825 -0.04670092 -0.40770876 0.13903898 0.19476138 -0.04154428 -0.3492218
-0.06644909 -0.3212784 -0.10855165 0.22446494 -0.09359502 0.032516144 0.23335683 0.22701521
-0.027806712 0.015520004 0.14874709 0.02357428 -0.040226124 0.027095059 0.051272728 0.013024118
0.15015382 0.20501871 -0.32893327 -0.27778748 0.20825851 -0.296058 -0.1867389 -0.014587461
0.011970513 -0.05257662 0.23011762 -0.07075425 0.021138184 0.15809944 -0.0052992776 -0.1188619
-0.32953814 0.12984043 0.15881687 0.24450693 -0.06184178 -0.16300748 -0.04298475 0.10605808
0.072426185 0.027473634 0.0010703504 -0.29219654 -0.06301749 0.030066717 0.2437043 -0.034280457
0.1910457 0.022510745 -0.084194094 0.03483571 -0.1675379 -0.26413915 0.09467232 -0.20824447
-0.15733376 -0.102816805 -0.4197552 0.000108801316 -0.38714504 0.045343213 -0.051901586 0.06718355
0.013210806 -0.27479473 -0.35686004 0.16200423 -0.26277837 -0.013175814 -0.12786919 -0.22813359
0.0073856176 0.12169811 -0.028195113 0.057136483 -0.057190873 0.21845606 0.07341521 -0.3470009
-0.022717342 0.18109256 0.05051876 0.08080218 0.19751099 0.22196987 0.10124128 0.053587932
-0.072912164 0.049021386 -0.041021813 0.038874336 0.03782672 -0.018601453 -0.026575483 -0.083456896
-0.10858765 -0.1066302 -0.04722047 0.1490344 -0.037545357 -0.34589043 -0.29327387 -0.36051482
0.039851323 -0.38844675 0.19725592 -0.09678394 0.2125335 0.06952053 -0.03172719 -0.26874328
0.07931545 -0.05713407 0.24563572 0.12219257 -0.057618223 -0.31572625 -0.002522112 -0.045700267
0.1710741 0.117700264 -0.04471019 -0.16019073 -0.016203681 0.046094384 0.08205142 -0.019668758
0.02398333 0.090183765 0.124498755 0.17098685 -0.25808993 -0.06100686 0.06601966 0.24967843
0.09711009 0.1454416 -0.07925528 -0.27564803 -0.16346453 -0.046981685 -0.082417645 -0.34454656
00000000: c91e ecbc 7df3 1d3e 8bca bfbd b4f9 b53d
00000010: 01b1 1fbe e6d2 a2bd 2bad 853e 156a 513d
00000020: ba31 aebd 26e2 963d 7061 c83c 0a18 24bd
00000030: 01c0 813d 84a7 d4bd 06b4 1abd 198c aabe
00000040: e0cc 01bf b047 aa3d 1953 33be 6760 5d3d
00000050: bfb5 883d 66ad 92be 8fa1 51be e337 74be
00000060: 3f75 98be 3cbc 80be 144f ba3c cf10 91bd
00000070: e8e6 6f3e 0e03 343e bc4a 5dbc d1af 9c3d
00000080: 2279 b3bd d30b 4e3d 08ee 043d 5674 b4be
00000090: 59ac 4abe 9d53 933d 9753 323d 4c26 55be
000000a0: 0849 62be 9f28 803c 6d5c 9b3d e82b 54be
000000b0: a63f 663d 7abf 51be 1342 86bd 1c10 a83e
000000c0: 7df0 cfbd 0911 a1be 8273 57bd c5ee 69be
000000d0: d22b b7be 224a 3bbd 25ab 64be e1d7 053e
000000e0: 5f42 52bd 236e f7bd 42db 873d a3ff 23bd
000000f0: b442 91be c085 0ebe 6a9d 6e3d 062a 4d3e
00000100: eab4 563d 255b 0fbe 20d6 abbc 684c 94bd
00000110: 9c09 663c b50c 393e 9e2f bb3e 834e 36bc
00000120: b46f 3f3d 84f7 ffbc 2a2e 2cbd e0ac 90be
00000130: fe53 91bd 315f 093d 713d b73c ec61 4ebe
00000140: 5356 a6be 9c0e 82bb a051 36bc ec16 86be
00000150: 87bd 2f3d 62f8 383e 1518 ef3c a2a7 883d
00000160: 7280 8dbe b313 a7bd cc4e 50be f296 073d
00000170: 0a4d d6be 014e 86be 7d2b 3e3d ee5a 383e
00000180: b9a1 62be 107f adbd 3184 023e 8202 bc3a
00000190: 8cc1 31be 45ae 42be 29e9 583d c4ac 2f3d
000001a0: 256b f4bc c11e 573e 7749 3fbd 34bf d0be
000001b0: 3c60 0e3e 876f 473e 562a 2abd 33cd b2be
000001c0: 7616 88bd 9a7e a4be 5450 debd 23da 653e
000001d0: bfae bfbd a62f 053d 18f5 6e3e ad76 683e
000001e0: e7ca e3bc 9d47 7e3c 2851 183e d91e c13c
000001f0: 26c4 24bd 75f6 dd3c 5a03 523d 1c63 553c
00000200: ecc1 193e 6df0 513e f169 a8be 293a 8ebe
00000210: b841 553e ea94 97be 7b38 3fbe 3f00 6fbc
00000220: f81f 443c 955a 57bd f4a3 6b3e 9be7 90bd
00000230: fc29 ad3c d2e4 213e 90a5 adbb de6d f3bd
00000240: 39b9 a8be e4f4 043e e4a0 223e 0660 7a3e
00000250: ce4d 7dbd 6feb 26be c710 30bd fb34 d93d
00000260: 2e54 943d 6310 e13c 004b 8c3a c99a 95be
00000270: 500f 81bd 7a4e f63c 9f8d 793e aa69 0cbd
00000280: 7ca1 433e 7468 b83c f46d acbd e4af 0e3d
00000290: 0e8f 2bbe 3f3d 87be 90e3 c13d 0a3e 55be
000002a0: 1a1c 21be 9e91 d2bd 27ea d6be 432c e438
000002b0: e037 c6be ceb9 393d c296 54bd 8797 893d
000002c0: 2372 583c e5b1 8cbe 5cb6 b6be 70e4 253e
000002d0: e38a 86be 5fdf 57bc 24f0 02be da9b 69be
000002e0: 0d03 f23b dc3c f93d 70f9 e6bc f207 6a3d
000002f0: fa40 6abd f2b2 5f3e b75a 963d 1aaa b1be
00000300: b819 babc 5470 393e c2ec 4e3d 9d7b a53d
00000310: 5240 4a3e 124c 633e 9757 cf3d 057f 5b3d
00000320: f952 95bd a6ca 483d 7d06 28bd b23a 1f3d
00000330: 31f0 1a3d 1362 98bc d4b4 d9bc 73eb aabd
00000340: 3463 debd ef60 dabd 406a 41bd 799c 183e
00000350: 29c9 19bd 8d18 b1be fe27 96be 6695 b8be
00000360: 243b 233d 7ee2 c6be 75fd 493e a936 c6bd
00000370: 62a2 593e c860 8e3d 5ff4 01bd b898 89be
00000380: 2370 a23d 6a05 6abd ee87 7b3e 1940 fa3d
00000390: 1601 6cbd dfa6 a1be 054a 25bb 3430 3bbd
000003a0: 0d2e 2f3e d60c f13d 0822 37bd 0a09 24be
000003b0: 95bd 84bc 77cd 3c3d 930a a83d 6020 a1bc
000003c0: b078 c43c 44b2 b83d 34f9 fe3d 2d17 2f3e
000003d0: 5d24 84be 54e2 79bd 5135 873d b4ab 7f3e
000003e0: a8e1 c63d a5ee 143e 9850 a2bd bd21 8dbe
000003f0: 3f63 27be de6f 40bd 95ca a8bd 6868 b0be

fc3.bias f4 [5]
0.0795194 -0.047910497 0.018593874 0.058476683 0.041383296
00000000: 11db a23d cc3d 44bd 2e52 983c 3f85 6f3d
00000010: 8881 293d
